hw5/checkpoints/best_model.pth (torch, 250530 bytes, 10 tensors)

conv1.weight f4 [6, 1, 5, 5]
000000 88 13 71 bd 76 0c 7d be 5e 6f 66 be 7f d6 91 bd
       -0.058856517 -0.24711785 -0.2250342 -0.0712099
000010 d3 11 47 3d 10 8d 5b be 9a b3 6a be 11 f0 dd bd
       0.048600983 -0.2144053 -0.22920075 -0.10836805
000020 94 2c 53 3e bf 57 bd 3e 2c 19 1a be 97 6d a9 be
       0.20622474 0.36981007 -0.15048665 -0.33091423
000030 93 d3 36 be b6 2a 19 3e 08 60 dc 3e 06 25 af be
       -0.17854147 0.14957699 0.43042016 -0.34207934
000040 d1 20 8f be b5 97 52 3e 7b 2d 29 3e 60 27 2c 3e
       -0.27954724 0.20565684 0.16521256 0.16811895
000050 56 f8 20 be 94 95 d3 bd fe ba df bc e3 61 14 3e
       -0.15719733 -0.10331264 -0.027310845 0.14490466
000060 a5 75 12 3e 3a 4b bc bd 23 ab 91 be 0f 98 37 be
       0.1430269 -0.09194036 -0.2845088 -0.179291
000070 0e 0a ed bd 47 31 94 bd b2 47 ab bc 61 55 a5 be
       -0.115741834 -0.072359614 -0.02090821 -0.322917
000080 31 51 13 bf 1e c2 a8 be 55 0f 02 3b 31 0d 37 3d
       -0.57545763 -0.329606 0.0019845564 0.044690315
000090 96 1c dc bd 31 99 06 3d 15 96 07 3d 3d d8 1a 3e
       -0.1074764 0.03286094 0.033102114 0.15121551
0000a0 1c da a1 3d 26 72 82 3e c2 df 2c 3e 61 e3 bd 3e
       0.07902929 0.25477713 0.16882232 0.3708754
0000b0 37 48 8f bc c9 f3 83 3e 09 00 a5 3e 90 85 b6 3e
       -0.01749049 0.2577193 0.3222659 0.35648775
0000c0 69 88 13 3e 1f a8 92 bd 61 ec 5f 3e 02 b1 b7 be
       0.14407505 -0.07160973 0.21867515 -0.35877234
0000d0 4d ae dc be 02 b2 71 be d1 1f 32 3e 95 07 97 3d
       -0.4310173 -0.23603061 0.1739495 0.07374493
0000e0 2a 74 34 be 38 ab f9 bd dd be 5d 3e c5 25 43 3e
       -0.17622438 -0.121908605 0.2165484 0.19057377
0000f0 ef 0c a1 3e 9e 1f a8 3e 0f 46 2e 3e 0d 82 81 3e
       0.3145518 0.32836622 0.17018913 0.25294533
000100 b9 72 a2 bc ef 1b ea 3d 15 c0 83 3e 3c 28 e1 3d
       -0.019830095 0.11431109 0.25732484 0.10994002
000110 a4 88 37 3e 94 c9 4e 3d 07 f9 58 be a0 cb dc bd
       0.17923218 0.05048521 -0.21188746 -0.10781026
000120 ab e9 96 3d 2e bc 1b be 42 4e 9b bd 2e 94 08 bd
       0.073687874 -0.15208504 -0.07583286 -0.03334444
000130 cc fd dc bd 0d 7c 31 be 0f f8 14 be 0c 56 88 be
       -0.107905954 -0.17332478 -0.14547752 -0.2662815
000140 e9 37 26 3e dc e1 4b 3e 6c 3c 0b be 4e ff 82 be
       0.16232266 0.19910377 -0.13597268 -0.25585407
000150 e7 0e 60 be fd fe b4 bd 36 d9 b7 3e 98 78 30 3d
       -0.21880685 -0.08837698 0.35907906 0.043083757
000160 05 18 b0 bd be 5d 9b 3c de 32 76 3d 3b 8e 31 3e
       -0.08598331 0.018965598 0.060107104 0.17339413
000170 3d fa df 3e 81 dc 59 3e 1c 44 29 3e 51 67 20 bd
       0.43745604 0.21275522 0.16529888 -0.03916103
000180 9d 19 0b bc 59 4e be bd 94 6e bc 3d f6 5c 26 3d
       -0.008489993 -0.092922874 0.092007786 0.040616
000190 ca 7e c0 be 4c a2 ad 3c fe 2d 04 3e 34 37 b0 3e
       -0.37596732 0.021195553 0.1290817 0.34417117
0001a0 83 9b 65 3e 43 4d a7 be 0f 37 df be d0 2c b0 be
       0.22422604 -0.32676134 -0.43596694 -0.3440919
0001b0 db 5c 5d be 20 c5 60 be 13 d7 34 bd 21 46 92 be
       -0.21617453 -0.21950197 -0.044150423 -0.2856913
0001c0 dc 87 45 be a6 3a 87 be e8 13 c5 be 23 e3 ab 3d
       -0.19290107 -0.26411933 -0.3849175 0.08392932
0001d0 c5 25 4d be eb c5 77 be e6 95 f0 bd 39 d6 8a be
       -0.20033939 -0.24196593 -0.11747341 -0.27116564
0001e0 10 1e 97 3e 00 98 23 3d b7 e1 b0 bd 6d ea 7a be
       0.29515123 0.03993988 -0.08636802 -0.24503489
0001f0 64 b6 4f be dd 75 b6 bb 38 47 46 3e 69 cd 4f 3e
       -0.2028442 -0.0055682496 0.19363105 0.20293202
000200 03 27 20 3e ee e1 03 be 76 df b8 bd 6c 73 03 3d
       0.15639882 -0.12879154 -0.09026997 0.032092497
000210 1a 20 19 3e da b7 f3 3d 9c 91 87 bc a3 5d 73 be
       0.14953652 0.11900301 -0.016548924 -0.23766188
000220 27 f0 06 3e 09 2e 91 3e 22 38 fb 3d 5c f0 86 3d
       0.13177548 0.28355435 0.12266566 0.06588814
000230 25 13 46 bc a6 bc 40 3d f5 30 15 3e db 0d 41 3e
       -0.012089525 0.04705491 0.14569457 0.18852942
000240 6d 03 cf bd 32 36 ca 3d b4 34 a2 3d 90 c9 b4 3d
       -0.10108075 0.09873618 0.079202086 0.088275075
000250 7a 4b 6d 3e 68 0c b5 3c
       0.23173323 0.022100642

conv1.bias f4 [6]
000000 06 3c f3 bd f2 2e 1c 3e e8 85 51 be 08 01 30 3e
       -0.11876683 0.15252283 -0.20461237 0.17187893
000010 88 05 72 bd b1 90 85 bd
       -0.059087306 -0.06521738

conv2.weight f4 [16, 6, 5, 5]
000000 24 52 3c bd 77 36 19 be 96 43 9b bd 36 df a0 bb
       -0.045976773 -0.14962183 -0.0758125 -0.0049094213
000010 6e ee 3c bc 3a 79 d8 bd 68 c5 4b 3d b4 0e 3a 3a
       -0.011531455 -0.10569997 0.04974881 0.0007097528
000020 8b 1e ec bc 71 80 5c bd 2c 31 ba bd 37 b1 c3 bc
       -0.028823158 -0.05383343 -0.0909141 -0.023888214
000030 64 92 30 3e 53 67 b7 bc c6 6f b5 bd 88 14 a2 be
       0.17243344 -0.022388136 -0.0885921 -0.3165629
000040 4f e0 16 be 15 74 0e 3d 55 da db 3d 25 fe 6a be
       -0.14734004 0.034778673 0.10735003 -0.22948511
000050 99 40 67 bd d0 4f 25 be e7 57 5d bd b2 b2 71 3a
       -0.05645809 -0.16143727 -0.05403891 0.0009220048
000060 69 fa d2 bd f8 ca 83 bd 5b 2e 1c 3d 2a 14 bc 3d
       -0.10301668 -0.064351976 0.038130146 0.091835335
000070 f0 8a 3a 3e 23 43 12 3e 14 10 48 3d e4 df 81 3d
       0.18217063 0.14283423 0.04884346 0.06341532
000080 f3 a3 53 3d a0 4c d4 3c 6d 13 0d bd 91 db bf 3c
       0.051670026 0.025915444 -0.034442354 0.023420127
000090 ae a3 91 be c7 54 ac be 09 9c 9e 3d ad 1a 4d 3d
       -0.2844519 -0.3365843 0.07744605 0.050074268
0000a0 e5 96 4a 3d ce 31 cd bd 25 4b 99 be 75 fe 24 be
       0.04946031 -0.10019265 -0.29940143 -0.16112693
0000b0 bc 4d 46 3e f5 a8 e8 ba 5a 4f ae 3c 39 0e 6c 3b
       0.19365591 -0.0017750548 0.021278072 0.003601922
0000c0 b7 1d 2d be 74 2d 53 bd ff 4c 8c bd 3d ce be bd
       -0.16905867 -0.05155702 -0.06850623 -0.093166806
0000d0 3e 5f 20 bd 6f c5 32 bd 52 a8 b6 bd be c5 63 3d
       -0.03915333 -0.04364532 -0.08918823 0.055608504
0000e0 4a c6 43 3d 6f 20 75 3c 2c 16 7f 3d ba 6e e2 bd
       0.047796525 0.014961346 0.062277004 -0.11056276
0000f0 5d fa 2b 3c 7e 6e da bd c7 5f 68 bd 57 67 31 3d
       0.010496703 -0.10665606 -0.056731965 0.043311443
000100 cc 0e f7 3c cd ea 83 be 20 de a4 be 66 47 3c be
       0.030158423 -0.25765076 -0.32200718 -0.18386611
000110 cf d0 80 bd 76 ee 32 3e 8c c4 eb 3c eb 40 06 be
       -0.06289827 0.17473778 0.028780244 -0.13110702
000120 bd 13 0e be 1f d5 95 be 28 e1 ad 3d 20 50 63 3c
       -0.13874717 -0.2926416 0.08490211 0.013874084
000130 72 6e 4a 3d b6 22 78 3b 64 3f ef 3b 9d c4 f6 bc
       0.049421735 0.0037862486 0.007301258 -0.03012305
000140 9b 6e bd 3d 07 38 18 3d 35 48 5b 3c ad 4f 42 3d
       0.09249612 0.037162807 0.013383915 0.047439266
000150 0e cb c4 bd c7 31 a8 bd 81 87 cf bd 08 27 02 3e
       -0.09609042 -0.08212619 -0.10133267 0.12710202
000160 ad 55 30 3e bc 39 b4 3c b5 f8 5d bd c2 df 76 bc
       0.17220183 0.022000186 -0.054192264 -0.015067996
000170 e4 5d 43 be ac e5 64 3e 82 2e 81 3e d9 d9 2f be
       -0.19078785 0.22353238 0.25230795 -0.17172946
000180 b0 f7 9a bc d1 4d e4 3c 04 58 76 be 1c 85 07 3e
       -0.018916935 0.027869137 -0.24057013 0.13234371
000190 63 23 52 3b c5 8b df bc 66 cc 3b bd 1e 43 95 3d
       0.003206455 -0.027288327 -0.045849226 0.07288192
0001a0 46 75 16 3e 12 98 e4 bd 52 25 cb bd 34 d2 19 be
       0.14693174 -0.111618176 -0.09919228 -0.15021592
0001b0 df f7 9b bd 95 8c ed 3c 21 26 91 bd 07 5b 47 bc
       -0.07615637 0.028997699 -0.07087351 -0.012167699
0001c0 dd 5c 16 be 98 39 e6 bd 15 8f bc ba a9 ca 14 bb
       -0.14683862 -0.11241454 -0.0014385903 -0.0022703803
0001d0 d5 2a 2c 3e b8 9b 65 3d 17 c2 bd bd a3 a5 00 be
       0.16813214 0.056056708 -0.09265535 -0.12563185
0001e0 3c 20 68 3d 25 90 73 3d 76 21 11 3e f0 f2 2f 3e
       0.056671366 0.05946364 0.1417292 0.17182517
0001f0 b8 ce 19 3c ff ad 9c 3d 54 b0 22 3b 13 b3 ce bd
       0.0093876645 0.076503746 0.0024824338 -0.100927494
000200 bc 05 37 be 85 64 cf bd ab 02 8a 3b 78 d5 4d bc
       -0.17873281 -0.101265945 0.004211744 -0.012563102
000210 60 86 fe bc 51 4d d0 bd 73 1f 81 be f1 c6 89 bd
       -0.031069934 -0.10170997 -0.25219306 -0.06727398
000220 2d 52 8c bd c3 8e ae 3c 67 55 fc 3d 9a 68 13 be
       -0.06851611 0.021308308 0.12320977 -0.14395371
000230 d0 bd 14 be 84 a9 61 be 28 81 d4 ba a6 f5 24 3e
       -0.14525533 -0.22037321 -0.0016212808 0.16109332
000240 0f d2 22 3d 48 eb af bd 4f f5 fa bd 30 cc 99 bd
       0.03975111 -0.08589798 -0.1225382 -0.07509649
000250 70 21 47 3d 86 ab 1a 3d 75 f6 19 3e 5d 24 15 bd
       0.048615873 0.037761234 0.15035422 -0.03641163
000260 97 b0 a4 bd c0 0f 4c bd c0 85 3b bd b8 2b 20 be
       -0.08041494 -0.049819708 -0.04578185 -0.15641677
000270 78 a1 e9 3d b6 d8 52 3c 8a 66 37 be 3c 53 2e 3e
       0.11407751 0.012869051 -0.1791021 0.17023939
000280 db f2 8d be 87 d6 f2 3d f2 a5 f9 3d 25 a4 4f be
       -0.27724347 0.11857324 0.12189855 -0.2027746
000290 e6 36 f9 bc 4f 16 64 3d 7a d7 9f 3d 44 2a 8a 3b
       -0.030421685 0.055685338 0.07804771 0.0042164642
0002a0 89 9b ab bd 0a de 8d be e0 8a f8 3d dc e8 42 3d
       -0.08379275 -0.27708465 0.12135863 0.047585353
0002b0 2c 6b 8b 3a 84 72 9d 3c 60 f9 5e bc 73 40 90 3d
       0.0010636798 0.019219644 -0.01360926 0.07043543
0002c0 6a 6d 33 bd 3f 4b 3e 3d db ed 10 3e b2 76 99 3c
       -0.043805517 0.04645848 0.14153235 0.018733356
0002d0 bb 14 1c bb b5 d9 94 be a5 e1 2b be 27 e7 cc bc
       -0.0023816067 -0.29072347 -0.16785295 -0.025012566
0002e0 39 5f 96 3d 4f d6 10 3c dc a1 02 bd 73 76 5d be
       0.07342381 0.008840158 -0.031892642 -0.21627216
0002f0 35 6a 20 be 12 ab dd 3d a5 50 f1 3d 0e d3 18 3d
       -0.15665515 0.10823645 0.1178296 0.037310652
000300 9a 02 19 be e3 a1 99 bd d9 10 2c 3e a6 fe 0f 3d
       -0.14942399 -0.075015806 0.16803302 0.03515496
000310 00 cd 0b 38 f7 32 99 be cd ec 93 bd ae c1 c2 bd
       3.3331104e-05 -0.29921696 -0.072229005 -0.09509598
000320 53 de 5e bd 0c eb 68 3c 42 b3 c9 3d 2b fd b5 bc
       -0.054411244 0.014216196 0.09848644 -0.022215446
000330 48 04 f2 bc d2 cd e5 bb 10 6d 16 bd 9d 29 da 3d
       -0.029543057 -0.007013061 -0.036725104 0.10652468
000340 9c ad 13 3e c5 fc bf bc a5 d2 66 bd 44 f0 36 3d
       0.14421695 -0.02343596 -0.05635323 0.04466273
000350 ec d1 8c bd 65 bb d1 bd c1 ea 0b bb 57 4d 01 3d
       -0.06875977 -0.10240821 -0.002134964 0.031567898
000360 5d e1 00 3e da 9b 82 bd a0 89 2b bd 8c 94 79 3d
       0.1258597 -0.063773826 -0.041879296 0.06093268
000370 ba 8d 96 3b 85 12 12 3b 57 b9 04 be 88 53 dc 3b
       0.004594532 0.002228887 -0.12961327 0.006723825
000380 2b 3d dc 3c 23 80 84 3c 7f 95 56 bd df 81 ec 3d
       0.026884636 0.016174382 -0.052388664 0.115482084
000390 6d 29 06 3c 07 38 36 bd 9f 87 86 bc 94 d1 6d be
       0.008188588 -0.044487026 -0.016422091 -0.23224479
0003a0 12 a5 d6 3c 22 87 28 3e fd 3b 07 bd 1a 99 23 bc
       0.026201759 0.16457799 -0.033016194 -0.009985233
0003b0 94 1c 2a be 24 9c b3 bb 8f 7d 4d 3e 16 35 8a 3d
       -0.16612464 -0.00548126 0.20067428 0.067484066
0003c0 0b 4a a9 3c dd 71 0f bd ae 04 94 bc 6d 1f e3 3d
       0.02066519 -0.035020698 -0.018068638 0.11089978
0003d0 9b 60 57 3c ac ac 4a be 12 a9 a7 3c f5 9c 9c 3c
       0.013145591 -0.19792432 0.020466361 0.019117812
0003e0 11 86 7e 3d 6e ae 4b bd 20 1b 10 bd 8b 54 c6 bd
       0.062139574 -0.049726896 -0.03518212 -0.09684094
0003f0 d0 0c 0e be 5b 03 9d bc 88 44 0d be 75 05 37 3d
       -0.13872075 -0.01916664 -0.13795674 0.04468294

conv2.bias f4 [16]
000000 14 e8 83 bc 63 dd b1 bd 4e 27 2c 3c 08 63 c2 3c
       -0.016101874 -0.08684804 0.010507418 0.023728862
000010 c6 ba ad bc ba 2c 89 bb 2d 0c 11 be 48 c5 8d 3c
       -0.021207225 -0.00418624 -0.14164801 0.017305985
000020 d7 24 db 3c 18 65 84 bc f6 c6 af 3d 22 48 86 bd
       0.026750965 -0.016161487 0.08582871 -0.06556727
000030 8e 5e 5e bd 49 ed 5f bd 9e ef 4a bd b3 ec 53 bd
       -0.054289393 -0.054669652 -0.049544923 -0.051739406

fc1.weight f4 [120, 400]
000000 69 b3 4c bd 38 be d4 3c f7 00 bb 3c 5e 87 45 bd
       -0.049975786 0.02596961 0.022827609 -0.0482248
000010 48 9f a6 bd fc b4 f3 3d 77 85 e7 3d ad 29 21 3d
       -0.08135849 0.118997544 0.11304753 0.039346386
000020 08 f3 a6 bd e7 4f 84 bd 00 e3 21 3d ff 83 75 3c
       -0.08151823 -0.06460553 0.039523125 0.014985084
000030 e4 8e 05 be e1 01 42 bd 3f 76 f0 3d a3 28 4b bd
       -0.1304279 -0.047365073 0.11741304 -0.0495993
000040 30 02 e3 3b 79 70 00 bc c9 63 78 3c 6b 06 b7 bd
       0.006927751 -0.007839316 0.015160509 -0.08936771
000050 b1 86 ae 3d fb 54 fa 3c 67 cf 03 bd 5c 52 ec 3c
       0.08521784 0.0305581 -0.032180216 0.028847866
000060 ec ea a6 3c 22 1e ce 3d f8 1c 32 3b d6 57 93 3c
       0.020375691 0.10064341 0.0027177911 0.01798622
000070 d6 f6 ac 3c bf 50 9a 3c f8 72 20 3d 33 f9 cd bc
       0.021113794 0.01883733 0.039172143 -0.025143242
000080 6c a7 20 3d db 4a 82 3d 8e 3b 20 3d 67 fd b8 3b
       0.039222166 0.06361934 0.039119296 0.0056454423
000090 92 ce 0a 3e 62 7f 6b 3d 7a b2 0b be a6 1e 04 be
       0.13555363 0.05749453 -0.13642302 -0.12902316
0000a0 fd 52 14 bd 8c 6e ca 3c fc cd cc bc ca 95 5e bd
       -0.036211956 0.024710916 -0.025000565 -0.05434207
0000b0 e2 91 d2 bc 57 b9 d3 3b 90 c5 ae 3c 57 24 52 3d
       -0.025704328 0.006461303 0.02133444 0.051304188
0000c0 a7 bd b8 3d 36 3d 5b 3d 65 20 31 3c 69 93 d3 3b
       0.09020548 0.053525172 0.010810946 0.0064567816
0000d0 e2 ac 5e bc 42 58 df bc cf d6 8f bc 50 7d af bd
       -0.013591023 -0.027263764 -0.017558483 -0.08568823
0000e0 26 5d 82 bd ce 6b 7f 3d 06 68 18 bd 71 1e 74 3d
       -0.06365423 0.06235867 -0.03720858 0.059599344
0000f0 c6 17 83 3d 19 04 5b 3d 11 11 cf 3d 59 ee 89 bd
       0.06401019 0.053470705 0.10110677 -0.06734914
000100 03 c5 a5 bd d8 b6 c3 bd 84 df 80 be 49 78 01 be
       -0.08094218 -0.09556359 -0.2517053 -0.12643541
000110 48 b5 b1 bd 0a 6b a6 bd c3 e4 6a be 01 81 bf be
       -0.08677155 -0.08125885 -0.22938828 -0.3740311
000120 db d4 c2 bd 59 ec 73 bd 8e 1d 33 be 42 12 9f 3c
       -0.09513255 -0.05955157 -0.17491743 0.019417886
000130 43 c0 60 3d 13 0b a0 3d 92 3f 59 3d d8 30 f9 bc
       0.054870855 0.07814612 0.05303914 -0.030418798
000140 2b 9b 85 3c 0c 1a e8 bb b0 67 0c 3c 2c ed b7 bc
       0.016309341 -0.007083183 0.008569643 -0.02245196
000150 e3 4f 47 bc 99 07 46 3b b6 75 0c 3d 51 31 36 be
       -0.012165043 0.003021693 0.034291945 -0.1779225
000160 7d 41 1f 3c 12 78 1e 3d b1 6e f6 3d f8 6f 5c 3d
       0.0097202035 0.038688727 0.120328315 0.05381772
000170 42 a6 9b bd 74 12 dd bd 5b 5f 7b bd 8e d1 37 3d
       -0.076000705 -0.10794535 -0.061370235 0.04487758
000180 36 e8 2e 3d 24 7c 87 3c 90 57 16 3d 98 83 45 bc
       0.042701922 0.016538687 0.0367046 -0.0120553
000190 e5 83 cd bc 87 40 fd bd 1d 8e f5 bd 1d 2e f6 bd
       -0.025087306 -0.12365823 -0.119899966 -0.12020514
0001a0 65 28 ce bd 9f 09 93 3c 4e 01 be bb b9 10 40 be
       -0.100662984 0.017948924 -0.0057984954 -0.18756379
0001b0 2a b2 41 be c9 1f bf bd c8 ea ee bd 3e 0c a9 bd
       -0.1891562 -0.093322344 -0.11665875 -0.08254288
0001c0 e7 be ce bd 13 e6 db bc dc 82 7b bd 8c 75 a8 bd
       -0.100950055 -0.026843106 -0.061404094 -0.08225545
0001d0 79 ad 9a bd 3a 79 9e 3d 9b d1 e1 3d 66 5e f7 bd
       -0.075526185 0.07737966 0.11026307 -0.12078552
0001e0 a7 5d c8 bb 51 e2 05 3c c6 68 76 3d dd c3 35 3d
       -0.00611468 0.008171634 0.060158513 0.044376243
0001f0 f7 01 d8 3d c1 77 18 3e a8 f0 d2 bc 41 b0 93 3d
       0.1054725 0.14889432 -0.02574952 0.07211352
000200 18 58 67 3c 55 3d 33 bd 00 d0 7e 3d 9d bd bb 3d
       0.014120124 -0.043759663 0.062210083 0.09167025
000210 33 55 aa 3d 9a 89 46 bd 05 a3 55 bd ac dd 2b bb
       0.08317032 -0.04847107 -0.05215742 -0.0026224656
000220 6f bf c7 bd 73 24 6d 3c 64 27 2a 3d 49 cd 96 3d
       -0.0975331 0.014474022 0.041541472 0.07363374
000230 96 54 b2 bd 75 b2 8a 3b ca d7 08 bd bb 47 5e 3d
       -0.0870754 0.0042326995 -0.033408917 0.054267626
000240 d7 7a 70 3d 2f bb 2e 3e 5d b7 60 3d 0f d9 5b 3e
       0.0587109 0.17063592 0.05486237 0.2146952
000250 b0 1d 50 3e 07 af 2d 3d b5 7a 74 bd f8 8e 9d bd
       0.20323825 0.042403247 -0.059687335 -0.07693285
000260 e8 87 74 bd 8a 95 56 3c 41 0a 41 3d 2b 43 d5 bc
       -0.059699923 0.013097176 0.04712892 -0.026033005
000270 2c e6 82 3d 59 05 04 3c ed 9b 16 bc ed 0e 03 bd
       0.06391558 0.008057916 -0.009192449 -0.031996656
000280 d6 3b af 3c de 32 88 bc f0 e3 db 3c fe 77 78 3d
       0.021390837 -0.016625818 0.026842088 0.06066131
000290 e5 e5 a9 bc da 57 c3 3c 2c 63 1c bd bc ec 29 3c
       -0.020739505 0.023845602 -0.038180515 0.010371383
0002a0 b7 78 24 3d 16 f8 a3 3b 70 5b 62 be 19 9c 04 be
       0.040154185 0.0050039394 -0.22105193 -0.12950172
0002b0 02 46 b0 bd f3 5e 1e be 93 ec 2c bc 00 8b 9b 39
       -0.08607103 -0.15465908 -0.010554451 0.00029667467
0002c0 b8 ee 29 bd 23 0f 04 3d 03 39 ee bc c8 fa e6 bd
       -0.041487426 0.032240998 -0.02907992 -0.112783015
0002d0 75 b7 2a 3c 43 45 e4 bb d8 b2 5c 3d 26 73 3e 3e
       0.010419716 -0.0069662645 0.053881496 0.18598613
0002e0 45 3b 88 3c 22 e8 c4 bd 81 6f 58 bc 45 ed af 3d
       0.016629824 -0.09614588 -0.013210178 0.085901774
0002f0 e0 30 9a 3b ca 0a 6f bd b6 d7 4f 3d 0a 52 09 3e
       0.0047055334 -0.0583599 0.050742827 0.13410202
000300 49 19 f1 3c 51 26 d2 bb 92 45 b7 bd 9e 78 bd bc
       0.029431002 -0.006413259 -0.08948816 -0.023128804
000310 74 f6 0d be fc 64 79 be 49 63 5d be f9 43 44 bd
       -0.13863546 -0.24354929 -0.21619906 -0.047916386
000320 82 47 b9 bd 9d e8 50 bd ff f8 a1 3b 37 25 fb bb
       -0.09046842 -0.051003087 0.0049430127 -0.0076643485
000330 84 b7 56 3b cb a8 f2 bd dc cb d4 39 80 5e f3 3c
       0.0032763192 -0.11848601 0.00040587678 0.029708147
000340 f8 cd 04 3e 25 08 d3 3d 6c 66 9d 3d 70 55 27 3c
       0.12969196 0.10304288 0.07685551 0.010213241
000350 1d 33 4b bc c4 f1 07 3d 40 e4 c5 3d 8c 0f 85 bd
       -0.012402323 0.03318955 0.09662676 -0.06497106
000360 8d 85 62 3d 54 b2 25 3d 6c 89 b4 3c 0b 73 ed 3d
       0.055303145 0.04045327 0.022038184 0.11594208
000370 9d 50 0f bd 0e 1d 0b 3c c2 d4 17 3d 37 12 2e 3d
       -0.03498899 0.008490814 0.037068136 0.04249784
000380 a1 35 9a 3d 15 db 22 bd 73 04 f3 bd 96 0e 8f bd
       0.0752976 -0.039759714 -0.11866083 -0.06985204
000390 b2 6f 6b bd c6 c3 fd bc 22 60 7c bd c5 eb 34 bd
       -0.057479568 -0.030977141 -0.061615117 -0.04417016
0003a0 1b 2c 33 3c 2d 2f e4 bd 0b b2 30 3d 0c 79 ba 3d
       0.0109358085 -0.111418106 0.043138545 0.09105119
0003b0 89 cc 24 3d 72 77 8e bc 00 cb b8 3d 1a be 57 3a
       0.040234122 -0.01739094 0.09023094 0.00082299265
0003c0 5b 89 7b 3b f9 b0 a6 3d 2c c9 68 bd be b0 fd 3d
       0.003838143 0.081392236 -0.056832477 0.123872265
0003d0 3b 6b 1c 3d 2c c6 1a 3d 22 e0 b6 3d d8 73 c5 bd
       0.0381882 0.037786648 0.08929469 -0.09641236
0003e0 19 c9 2a bd d7 3c 0a bd 53 48 3b bd bc 6a 8c bd
       -0.041695688 -0.033749428 -0.04572327 -0.068562955
0003f0 e0 36 71 bc ca 7d 2c bd 87 64 4a bc 9e 1e 0f bc
       -0.014722556 -0.04211215 -0.012353069 -0.008735327

fc1.bias f4 [120]
000000 e2 59 53 3d a8 f7 b9 bd c5 82 38 3c de cd fd bc
       0.05159939 -0.0908044 0.011261647 -0.030981954
000010 1e 79 0c bd 49 59 77 bd 06 c9 85 3c 24 61 25 bd
       -0.034295194 -0.060387883 0.016331207 -0.040375844
000020 ad 0f 4d bc 63 9d ee bc 27 3a 60 bd b4 1b 57 3c
       -0.012515944 -0.029127782 -0.05474296 0.0131291635
000030 f7 42 cc bc 1b 1d 2f bd 00 b2 c3 3b 30 0b cb bc
       -0.024934275 -0.042752367 0.005972147 -0.024785608
000040 01 50 fa 3c 6a f7 ec 3c 45 25 fb bc 3a 9c 77 bd
       0.030555727 0.02892657 -0.03065742 -0.060451724
000050 80 6f ec 3b 8b f7 61 bd 3e 96 b0 3c cf c3 47 3b
       0.0072154403 -0.055167716 0.021556016 0.0030481701
000060 a8 0a 58 bb 44 bb c2 bd 72 41 ee 3c f0 88 35 bd
       -0.0032965336 -0.09508374 0.029083941 -0.044320047
000070 96 4a cc bb ed f4 d1 3c fb 7e 37 3b b9 82 dc 3c
       -0.0062344773 0.025629485 0.002799927 0.026917802
000080 6c 10 54 bd fb 66 0c 3d 0d 6a d8 bc e5 d9 da bb
       -0.051773474 0.034277897 -0.026417756 -0.006678807
000090 a9 5b 13 3c 31 06 1e bc 41 32 a5 bc d7 b6 c4 bc
       0.008994021 -0.009645031 -0.020165564 -0.024012966
0000a0 0e ab 5b 3d 2c 85 02 3d c2 b0 56 3d b1 bb ab 3c
       0.053629927 0.031865284 0.052414663 0.020963522
0000b0 d3 5b 34 bc ff f7 15 bd c3 2d cd bc c6 8a 42 bd
       -0.011008221 -0.03661346 -0.025046235 -0.047495626
0000c0 48 50 bb 3b 2d 50 f3 bd f4 54 4d 3c 6a d1 bf bc
       0.0057163574 -0.11880527 0.012532461 -0.023415286
0000d0 df 6b f7 3b 27 6e 8d 3a 4b 67 4e 3c b8 9f 6d 3b
       0.007550701 0.0010790274 0.012597869 0.003625853
0000e0 4d a4 db 3c 05 57 21 bb 28 b1 00 3c ad 3f 11 3d
       0.026811743 -0.0024618518 0.007854737 0.035461117
0000f0 43 2d d9 bc d8 65 41 bd 69 75 08 bd 92 fb 28 3c
       -0.02651084 -0.047216266 -0.033315096 0.010313885
000100 cd d6 19 3d 90 3b bb 3c a8 d9 37 bc b0 29 03 3d
       0.037558366 0.02285555 -0.011221327 0.03202218
000110 62 d2 7b bd a0 56 57 3d e0 07 17 bd 40 8b f8 3c
       -0.061479934 0.052572846 -0.036872745 0.030339837
000120 66 65 91 3d 8a 0e c9 3d f0 09 d6 bc d5 cb c9 bc
       0.07099418 0.09817226 -0.026127785 -0.024633327
000130 fc 3f d7 bc d0 20 00 3d 28 40 c9 bc 59 ca 21 bd
       -0.026275627 0.031281292 -0.024566725 -0.039499614
000140 81 8e 92 bd 2a a3 22 3d f4 11 87 bd c3 47 f9 3a
       -0.07156087 0.039706387 -0.06595221 0.0019018579
000150 93 d5 7a bc df 04 a6 bc 62 82 38 3b 31 03 21 3d
       -0.015309709 -0.020265995 0.0028153886 0.039309684
000160 5a 61 94 bc 74 c6 19 bd fe 00 b0 bd c8 0c 57 bc
       -0.018112827 -0.037542775 -0.08593939 -0.013125606
000170 40 5e 76 3d 47 67 7b 3c c7 9a d4 3c d6 f5 e0 bb
       0.060148478 0.015344447 0.02595271 -0.0068652434
000180 4d bd aa 3d 2e 73 00 bd 2f 1b 26 bd 10 79 35 3d
       0.083368875 -0.031359844 -0.040553268 0.044304907
000190 a8 1d 9f bc bf 3c de bc f8 1a c4 bb 30 31 f1 bb
       -0.01942332 -0.027128575 -0.0059846602 -0.0073606
0001a0 84 c8 ec 3c 55 58 92 bd 71 0d 93 bc 4c a6 50 bd
       0.028904207 -0.07145754 -0.017950745 -0.050939843
0001b0 82 d8 c7 ba eb 32 00 bd 71 a1 93 bc a0 92 1e 3c
       -0.001524702 -0.03129856 -0.018021317 0.009678513
0001c0 6e c2 9a bc 3a 3d 14 bd cb 51 0d bd 75 42 22 bc
       -0.01889154 -0.036191203 -0.034501832 -0.00990354
0001d0 48 fc 51 3d 40 a3 c4 bc 15 1a 61 bd d5 d7 ca bc
       0.051265985 -0.024003625 -0.054956514 -0.02476112

fc2.weight f4 [84, 120]
000000 61 b1 81 3d 6d 93 a7 bd 62 ea ab bc 15 66 09 3d
       0.063326605 -0.08182416 -0.020985786 0.03354462
000010 23 f4 07 bd d1 2a 8a bd 2c a5 d1 bc 55 f8 b0 bc
       -0.03319181 -0.06746448 -0.025591455 -0.021602789
000020 cf 74 d7 3b 84 dd 92 bc d3 b4 60 3d e3 1d 44 3e
       0.006575204 -0.017927893 0.054859947 0.19152026
000030 90 02 4f be d1 cd 7a bc 75 47 95 3d bc 37 00 bd
       -0.20215821 -0.0153078595 0.0728902 -0.031303152
000040 d0 ae 9d bd 8c 59 4e be 11 19 1d be d0 32 74 3c
       -0.076993585 -0.20151347 -0.15341593 0.014904693
000050 7d 05 92 3d 92 9a e6 bc d8 9c 3e bd 7f 11 37 bd
       0.07129953 -0.028149877 -0.046536297 -0.04469442
000060 90 ad 38 3d ba db ce 3d 37 a1 26 bb a5 1a ad bd
       0.045087397 0.10100503 -0.0025425681 -0.08452348
000070 fc 9b 4f be 99 f1 74 bd c8 2f 75 bb 04 70 89 bd
       -0.20274347 -0.059800718 -0.0037412513 -0.067108184
000080 58 b0 eb bd b9 53 df 3d 4e fb 20 3e 43 6e 32 bd
       -0.11508244 0.10904641 0.15720865 -0.043562185
000090 63 32 41 3d ca 57 51 3a b5 7a 5c be 7e 42 2a be
       0.047167193 0.0007985799 -0.21531184 -0.16626927
0000a0 46 94 a7 bd 1f 83 f5 bd ae c0 aa 3c 18 52 1e bd
       -0.08182578 -0.119879 0.02084383 -0.03865251
0000b0 64 bd 79 bd 87 00 23 3e 65 5a e4 3d 87 cd a6 3d
       -0.060971633 0.1591817 0.11150054 0.0814467
0000c0 15 d1 ae bc 26 b1 96 3d 37 b7 5b 3d ae af 36 3e
       -0.021339932 0.07358007 0.053641524 0.17840454
0000d0 e5 7a bd 3c 49 62 61 bc 6e 42 16 3e f2 1b 83 bc
       0.02312989 -0.013756343 0.14673778 -0.016004536
0000e0 20 72 e3 3d 64 c2 aa 3d bc 7c 10 3d 9e d3 27 bd
       0.11105752 0.08337858 0.035275206 -0.0409733
0000f0 33 88 b4 bd 3d ed 8e 3d 6c 66 18 be 5c 44 52 3d
       -0.088150404 0.06978843 -0.14882821 0.051334724
000100 af f3 e2 bd 5a 93 1b 3e 1b db 6b 3c 6d 5d 00 be
       -0.11081635 0.15192929 0.0143955005 -0.12535639
000110 ee 18 0f 3e bc a2 ad 3d 1d ae 61 be c6 b0 2d 3c
       0.13974354 0.08478305 -0.22039075 0.010601228
000120 d3 00 f8 bc 26 fe db bd 51 e0 04 3e 17 ec 5c bd
       -0.03027383 -0.10741834 0.12976195 -0.05393609
000130 dc 41 b5 bc ae c1 b1 bd f3 81 ee bc df 55 51 be
       -0.02212613 -0.086795196 -0.029114699 -0.20442913
000140 c6 d8 57 bb e3 b5 06 3e c6 2e 26 3e d3 f2 bd 3c
       -0.0032935604 0.13155322 0.1622878 0.023187077
000150 db 49 c1 3c a0 91 81 bd 25 24 f2 bc 90 b8 1f be
       0.023594787 -0.06326604 -0.02955825 -0.15597749
000160 04 5c 9d bd 11 58 b5 ba a4 59 78 3d 1c 32 87 3d
       -0.07683566 -0.001383545 0.060632363 0.066013545
000170 37 75 4f 3d 23 4d 0e 3d 53 31 0f be e9 92 f6 3d
       0.050648894 0.034741532 -0.1398366 0.1203974
000180 5a d4 3b bc b5 50 6c 3d 6b a1 03 3d d8 9e 69 3c
       -0.011464203 0.057694156 0.032136362 0.014259063
000190 e0 08 17 be c8 c6 b9 3d 60 4a d9 bd 92 ff 37 3c
       -0.1474948 0.09071118 -0.10609889 0.011230366
0001a0 d9 07 cf 3d 3e a4 93 bd 96 43 80 3d 38 82 09 bd
       0.10108919 -0.07209061 0.06262891 -0.033571452
0001b0 a4 0c c6 bd fe 59 77 3d 27 78 8c 3e 7a 42 b0 bd
       -0.0967038 0.060388558 0.2743542 -0.086064294
0001c0 77 61 71 3c 7a 2d 0a be cb db 04 3e dd 71 82 3c
       0.01473271 -0.1349391 0.1297447 0.015923435
0001d0 5d 2f f3 bd 14 4f 8a 3d 2b 48 9a 3d 0b 42 20 3e
       -0.11874268 0.06753364 0.07533296 0.15650193
0001e0 92 bb fe 3d 68 a5 0e bd c6 2a 4a 3d 10 e8 b1 3d
       0.1243812 -0.034825712 0.0493572 0.086868405
0001f0 cb 7a 93 bb b0 8f e0 3b 0c fa aa 3d 4f 51 50 bb
       -0.004500722 0.0068530664 0.08348474 -0.0031786745
000200 bd 60 0b 3b 39 4f b9 bd c3 e4 cb 3d 03 5e 36 3d
       0.0021267377 -0.09048314 0.09955742 0.04452325
000210 88 eb 1d bd 8d c8 b5 3d 4c 45 1d be a1 4b 99 bd
       -0.0385547 0.08876143 -0.15358466 -0.07485128
000220 31 77 43 3d 68 6d 4c 3e 7f de b9 bc e4 2c 8a 3d
       0.04772109 0.1996361 -0.022689102 0.067468435
000230 e5 ff cd bc 92 36 ca 3d 73 a8 06 3d 4e 3b 4e bd
       -0.025146434 0.0987369 0.03287549 -0.050349526
000240 16 62 0a be 61 5c 5e 3e 6f 46 6e 3e 9c 3f 20 3d
       -0.1351398 0.21714927 0.23269056 0.039123163
000250 5d f8 69 3d c4 44 67 3d 33 96 7d 3b d0 24 23 3d
       0.057121623 0.056462064 0.0038694262 0.03983003
000260 c7 33 3b bd 84 f7 66 bd b4 ff 19 bb 78 59 81 3c
       -0.045703676 -0.056388393 -0.0023498358 0.015789732
000270 38 c9 84 3d 96 9f ce 3c e4 fe 07 bc 24 5c 50 3d
       0.06483692 0.02522258 -0.008300517 0.050869122
000280 2e fa da 3d 29 b2 e1 bd 8e 6a 8f bc 45 ca 72 3c
       0.10692249 -0.110203095 -0.017506864 0.014818733
000290 25 18 af 3d f2 ec a2 bd 64 65 50 bc 0b 0e 9a bd
       0.08549527 -0.0795535 -0.012719486 -0.0752221
0002a0 25 55 1e bd 8c e8 d9 3d b9 c2 91 3c b3 a8 ca bd
       -0.03865542 0.10640058 0.017793046 -0.09895458
0002b0 6c 1d 13 3d 27 98 5c bd a1 3b ee 3d 6f 4e bf 3d
       0.03591673 -0.05385604 0.11632467 0.09341132
0002c0 e9 22 ec bd 72 7b 1c 3c fb 5d 62 be da 71 ca 3a
       -0.11530096 0.009550916 -0.22106163 0.0015445307
0002d0 c5 8f eb 3d e0 83 1c 3c c6 71 e1 bc b1 0f 7c bc
       0.11502031 0.009552926 -0.027520072 -0.0153846005
0002e0 7a 13 28 be 7c 68 4f 3d 9e b3 f2 bd 25 a1 04 3c
       -0.1641368 0.050636753 -0.118506655 0.0080950605
0002f0 66 6c 99 3d c4 6f a0 bc 9b 59 c7 3d 18 d3 1b 3e
       0.074913785 -0.019584544 0.09733888 0.15217245
000300 ed 89 97 3d b6 11 42 3e 60 3e 12 3d 8b 8d 37 3e
       0.07399354 0.18952069 0.035704017 0.17925088
000310 fd e9 0b 3e 58 23 2b bd 8e 39 33 be 8b 43 02 3e
       0.13663478 -0.041781753 -0.17502424 0.12721078
000320 55 5f b5 bd 69 25 0a 3c db ec a9 bd 16 a7 9e 3c
       -0.08856074 0.008431771 -0.0829713 0.019366782
000330 26 db 81 3d 18 56 8c bd f1 ff 70 3d 0d 38 94 3d
       0.06340627 -0.068523586 0.058837835 0.07237253
000340 f6 f8 32 bd 7f 6c 54 bd 92 ac 78 bd d6 b8 43 3d
       -0.04369446 -0.051861282 -0.06071145 0.047783695
000350 8b 3b 5d 3d d3 b8 3d bd 79 b7 48 3e 8f da 83 bd
       0.054011863 -0.04631884 0.1960124 -0.06438171
000360 2a 7b a9 3d 68 70 d5 3d aa ab 9f bc 07 ae e7 3d
       0.08275445 0.104218304 -0.019491035 0.1131249
000370 a8 04 b6 bc a4 a0 85 bc df f1 fd 3d e8 f3 a0 bd
       -0.022219017 -0.016311951 0.12399649 -0.078590214
000380 29 c8 47 3d 40 0f 90 3d 19 f8 77 bd 5c 6f 8f bd
       0.048774872 0.07034159 -0.06053934 -0.07003662
000390 a1 1b 9f 3c 8c db b3 bb e8 95 b7 bd 3d d7 12 be
       0.019422354 -0.0054888185 -0.08964139 -0.1433992
0003a0 01 4a 1f bd d2 6c 98 bc 59 2c e9 bd 45 40 a0 bd
       -0.038888935 -0.018606577 -0.11385412 -0.078247584
0003b0 81 85 e3 bc fb a8 a1 3d 62 48 d1 bd 6a c0 1b be
       -0.02777362 0.078935586 -0.10218884 -0.15210119
0003c0 13 c0 1b 3d 72 6e 4d 3d 23 b3 bf bb a1 15 e2 3d
       0.038024973 0.050154157 -0.005850212 0.11039282
0003d0 48 b4 37 bd f3 59 19 3d d1 09 0b bd e3 68 4a bb
       -0.044849664 0.037439298 -0.03394491 -0.0030885271
0003e0 0a b9 e5 3d 07 4f a5 bd c1 bd 41 3d fb fc 8c 3d
       0.11216934 -0.08071714 0.047300104 0.0688419
0003f0 e5 73 18 bc 5e 14 ce 3c 95 0c 01 be 95 f1 70 3c
       -0.009304975 0.025156196 -0.12602456 0.014706035

fc2.bias f4 [84]
000000 01 4e 4a 3e dd a9 3b 3e f2 9a 35 3e 05 52 2f 3b
       0.19756319 0.18326516 0.17734888 0.0026751768
000010 a7 a3 cf 3d d5 49 2a 3e 7e ed 4c 3d 2c 81 cd 3d
       0.10138636 0.16629727 0.050031178 0.10034403
000020 10 6a ea 3d 51 e5 40 3e 02 9c fe 3c c9 17 99 3d
       0.11446011 0.18837477 0.03108025 0.0747524
000030 fc 34 ad 3d 79 65 c3 3d 39 79 13 3e f4 33 9c bc
       0.084573716 0.09540839 0.14401712 -0.019067742
000040 cf c1 ae 3d 5d 20 ee 3d 75 5c 26 3e e1 78 f5 3d
       0.0853306 0.116272666 0.16246207 0.119859464
000050 0a 6b b3 3d 06 2f 3c 3e 3e 46 0c 3e c6 19 08 3e
       0.087606505 0.18377313 0.1369867 0.13291082
000060 ae 72 36 3e 61 22 6b 3e fb c4 53 3c e6 d3 11 3e
       0.17817184 0.22962333 0.012925382 0.14240989
000070 23 dd 98 3e 3e cf 7b bb 6a f6 52 3e bc 7d 8d 3d
       0.29856214 -0.0038423087 0.20601812 0.069087476
000080 82 9f 7c 3d 73 a3 ad 3d 96 b2 da 3d 2a bf 1b 3e
       0.061675556 0.08478441 0.10678594 0.15209642
000090 45 2b 53 3c 69 b5 b3 3d 38 d6 0e 3e b4 b1 3f 3d
       0.012888734 0.087748356 0.13948905 0.04680033
0000a0 f1 1b 7d 3d 22 32 8d 3e a1 b8 b2 3d 1c dd 65 3e
       0.061794225 0.2757731 0.087266214 0.22447628
0000b0 1d 34 78 3e a8 e6 85 3d 59 c4 36 3e c9 2c 72 3c
       0.2423863 0.06538135 0.17848338 0.014781185
0000c0 55 70 ad 3d 71 8b b2 3c 2a 36 2e 3e 15 3f 8c 3e
       0.08468691 0.021795006 0.1701285 0.27391878
0000d0 3c 77 f8 3d 4a d8 4a 3e 7a 3c 49 3e 7d f1 03 3e
       0.12132117 0.1980907 0.19651976 0.12885089
0000e0 a8 b7 62 3e 16 b9 af 3d fe fa 73 3d 88 9a e1 3d
       0.22140372 0.08580224 0.059565537 0.110158026
0000f0 4e 1e b5 3d 56 6c 90 3e ef 55 8c 3d 05 73 10 3e
       0.08843671 0.28207654 0.06852328 0.14106376
000100 5a 85 d9 3d fb 76 67 3e 5a 56 91 3e 3c 27 b7 3d
       0.10621138 0.22603981 0.28386194 0.0894303
000110 56 e7 8c 3e 18 75 14 3e 54 5e 71 3d bb 84 5b 3e
       0.27520245 0.14497793 0.05892785 0.21437351
000120 a4 97 21 3e 25 64 9e 3d b6 88 d9 3d 26 ba 4c 3c
       0.15780503 0.07733945 0.10621779 0.012495553
000130 31 86 32 3e 5b 30 16 3e 03 cb a7 3d 3a c4 3e 3e
       0.17434002 0.14666884 0.08193018 0.18629542
000140 75 c9 5d bc 94 40 15 3e 1f f5 e4 3c eb 1d 9b bd
       -0.013536801 0.14575416 0.027948914 -0.07574066

fc3.weight f4 [10, 84]
000000 68 bf 12 3e 92 37 61 be cd d7 92 3d 31 39 25 bd
       0.14330828 -0.21993855 0.07170067 -0.040337745
000010 4a 75 d3 be b2 e0 a2 3d 56 09 0d be 5e 84 0c be
       -0.41300422 0.079530135 -0.13773093 -0.13722369
000020 93 03 95 3d ab ce df bd 6a bc 3d be 62 8c 6c be
       0.07276072 -0.10928091 -0.18528906 -0.23100427
000030 c5 44 1d 3d 33 b3 89 3d a4 c7 cd 3b 92 57 ef bd
       0.03839566 0.06723633 0.0062799025 -0.116866246
000040 97 be a4 3d 47 8d cd 3d e3 84 d5 3d e1 8a 4d be
       0.08044165 0.10036712 0.10425737 -0.2007251
000050 aa f6 af be 85 2d 55 be fd 8c 87 3d 3a fd 8f be
       -0.34367877 -0.20818146 0.06618688 -0.28122884
000060 38 82 39 be 08 44 ef 3d d8 d6 df bc 53 9a 6f be
       -0.18116081 0.11682898 -0.027324125 -0.23398714
000070 f3 12 1d be a4 7b 7f bd 49 27 3d be e0 1b 4e be
       -0.1533926 -0.062373772 -0.18472017 -0.20127821
000080 f5 3c 4f be 15 66 96 3d 24 92 d7 bd 2b 23 23 3d
       -0.20238097 0.07343689 -0.10525921 0.03982846
000090 02 66 0f 3e 32 da 87 3d 50 87 e3 bd 88 7f 8b 3b
       0.14003757 0.06633414 -0.11109793 0.0042571463
0000a0 c4 32 57 be a4 4e b0 3d b1 d7 49 be 7f 16 44 be
       -0.2101546 0.086087495 -0.19711186 -0.19149207
0000b0 3d f2 75 be 71 58 05 3e cb 8b 23 3e cd 8e 49 3d
       -0.24018188 0.13022019 0.15971296 0.04920845
0000c0 6c 2d 39 be 85 c6 39 be df 38 d1 be fc c0 07 3e
       -0.18083733 -0.18142135 -0.40863702 0.13257211
0000d0 aa 1b 57 be 21 e7 a4 3b 4c ca 3c 3d a1 40 72 be
       -0.21006647 0.0050324355 0.046091363 -0.23657466
0000e0 73 6f 2b 3d e9 d1 87 bd 84 23 14 3e f7 36 52 be
       0.041854333 -0.06631834 0.14466673 -0.2052878
0000f0 dc 79 67 be 37 4f d3 3d 1d 35 36 be 36 cb 37 3d
       -0.2260508 0.103178434 -0.17793699 0.04487153
000100 4a 87 13 3e 92 80 8a 3d c8 21 f6 3d ea 5d cb 3c
       0.14407077 0.06762804 0.12018162 0.024825055
000110 4f 17 86 be 71 73 d2 b9 55 3f cd bc b7 fe f4 3d
       -0.26189658 -0.00040140332 -0.025054613 0.119626455
000120 47 f5 e9 3d b4 d2 89 3c 32 4e 53 be 10 4f 8e 3d
       0.11423736 0.016824104 -0.20635298 0.06948674
000130 5a 1f 23 be c0 3f ff 3d 8c 6b 1d be 86 44 7c be
       -0.15929928 0.12463331 -0.15373057 -0.24635515
000140 9b 9a d3 bc 17 3f b7 be 6b 8b 0e 3e dc ca 0d bc
       -0.025830558 -0.3579032 0.13920371 -0.0086543225
000150 16 c0 bc 3d cf 00 a1 bc 1d 43 19 be df 37 f6 bd
       0.09216325 -0.019653706 -0.14967008 -0.12022375
000160 95 2a 2b 3e 72 0b 8a be 39 26 71 be d2 64 da bd
       0.16715463 -0.26961857 -0.23549737 -0.10663761
000170 a4 1e 2b be 3c 23 61 be 07 14 1d be 7d 6c fe 3d
       -0.16710907 -0.21986097 -0.15339671 0.12423036
000180 a3 c6 50 be fa c4 81 bd 78 75 2b be ea d2 31 bd
       -0.20388274 -0.063363984 -0.1674403 -0.043414034
000190 81 94 72 3d a7 13 cc bd ba 3b 7d be 0c 80 b6 3d
       0.059223656 -0.09964686 -0.24729815 0.08911142
0001a0 5f f8 9c be 60 d9 6f 3d 4e 67 3f be 80 0c ca 3d
       -0.30658242 0.058556914 -0.18691751 0.098656654
0001b0 9a 42 9c 3d 23 d8 9d bd 35 79 0d be f4 fb a1 bc
       0.07629891 -0.077072404 -0.13815768 -0.01977346
0001c0 b3 df d1 3d ef ab 3a be 38 11 b8 3d aa b3 1f 3e
       0.10247745 -0.1822965 0.08987659 0.1559588
0001d0 f9 a4 e1 3d cd e0 07 3e 87 b1 e4 3c cd 7f df 3d
       0.11017794 0.13269348 0.027916683 0.10913048
0001e0 ee 61 7b be d8 bc 42 be ec e4 f1 bd 37 b4 55 be
       -0.24549076 -0.1901735 -0.118112415 -0.20869528
0001f0 12 af a1 3d 64 2f 60 be 5a ae d9 bc 48 44 94 bd
       0.0789472 -0.21893078 -0.026572395 -0.07239586
000200 cf 90 5f 3d c8 3b d3 3d 70 5a bc bd 6e 93 f5 3d
       0.05458146 0.10314137 -0.09196937 0.119910106
000210 cb c8 8e 3d 89 2b fa 3d 86 1a 9e bd 1a 67 3a be
       0.06971892 0.12215335 -0.07719903 -0.18203393
000220 5d 35 44 3c 22 07 8f be 6c dc ca bd 51 65 4b 3d
       0.011975613 -0.2793513 -0.099053234 0.04965717
000230 34 ea a6 3d 54 d1 37 3d 40 a4 21 be 13 ee 46 be
       0.081501395 0.044877365 -0.15785313 -0.19426756
000240 71 ee de 3d 4d 0d f7 be 03 52 f2 3c bf e9 f8 3d
       0.10885323 -0.48252335 0.029580122 0.121539585
000250 94 ca ac bd 4e ab d9 3d d7 a8 16 be 43 ab 5d be
       -0.08437076 0.10628377 -0.14712845 -0.21647362
000260 b7 eb cd 3d 3d cf e5 3d c1 d5 40 be ed 3d a5 3d
       0.10054725 0.11221168 -0.1883154 0.08068452
000270 82 7d 3f 3d 6c 22 1d 3e 0e 40 1e be 99 84 d1 3d
       0.046750553 0.15345162 -0.15454122 0.10230369
000280 5e d3 76 be 23 56 d8 3d bd 41 88 bc ee 9d b7 3d
       -0.24104068 0.10563304 -0.016632909 0.089656696
000290 e6 9d 5e be 3f 2e ee 3d 21 b0 ce bd b3 27 54 be
       -0.21739921 0.116299145 -0.10092188 -0.20718269
0002a0 55 58 d5 3d 42 4a a0 3d 70 e4 fa 3d 2d 7f ca 3d
       0.104172386 0.078266636 0.12250602 0.09887538
0002b0 6f 2d 17 3d a6 ff 7b be 57 a7 45 be 98 c0 d3 3d
       0.036908563 -0.24609241 -0.19302116 0.10339469
0002c0 ab c2 6f be 2e e8 bd 3d d6 d4 06 bd 1b 28 cc 3d
       -0.23414104 0.092728004 -0.03291782 0.09968587
0002d0 48 a3 d8 bd c2 54 18 be 53 4e ec ba 32 97 48 3d
       -0.105780184 -0.14876083 -0.0018028714 0.048972316
0002e0 81 4f d2 bd 92 d1 e6 3c 0b a8 c6 bd 62 a9 68 3d
       -0.102690704 0.028176103 -0.097000204 0.05680216
0002f0 9c c6 2c be a0 82 b1 3d de 58 6a be 2e f8 91 bc
       -0.16872638 0.08667493 -0.22885463 -0.017818537
000300 a6 7b b0 bd 1e 3d f1 bd 2b 6f cb 3d 5e b6 4d 3d
       -0.08617334 -0.11779235 0.09933313 0.050222747
000310 06 ad 79 be bd de fd bd e9 68 9b 3d c6 48 42 be
       -0.2438241 -0.123959996 0.075883694 -0.18973073
000320 ee 5c d4 3d f0 3a 83 3c 63 85 35 be 02 e3 85 3d
       0.103692874 0.016019315 -0.17726664 0.06537439
000330 89 c7 27 3c bc fd 0e be 2d 0f aa bd 3d 88 9e 3d
       0.010240444 -0.1396398 -0.08303676 0.07740829
000340 98 13 a8 bd 33 ab e5 bd b5 35 08 3c 25 7b 2b be
       -0.08206862 -0.11214294 0.008313586 -0.16746195
000350 f2 fc 2b be 30 9f 53 3d 23 27 bd 3d 8e 98 c9 3d
       -0.1679571 0.051665485 0.0923598 0.098435506
000360 ac d4 e1 bd 8a c2 f9 3d b0 3c c9 3d 39 72 e4 3d
       -0.11026892 0.121953085 0.09826028 0.11154599
000370 51 c2 04 3e df b2 53 be 5e 64 de 3d 2a a8 2c be
       0.12964751 -0.20673703 0.10858987 -0.16861024
000380 37 ba 16 be 48 21 a3 3d 44 db 9d 3d 7c 90 fb bd
       -0.14719473 0.07965332 0.07707837 -0.122834176
000390 b1 d5 2c be 39 03 4d bd 2d c4 05 3e 51 f4 b7 3d
       -0.16878392 -0.0500519 0.13063116 0.089821465
0003a0 84 d6 18 be 1f f8 4e be 6e fe 19 3e 0d 86 90 3b
       -0.14925581 -0.20211838 0.15038463 0.0044105113
0003b0 ba 9d 79 be c5 6a 41 be 31 35 56 be fe de 44 be
       -0.24376574 -0.18888386 -0.20918728 -0.1922569
0003c0 ee 0b d7 bd 7e f8 a7 bd 71 8f 77 bd 17 e7 9f 3d
       -0.10500322 -0.08201693 -0.06043953 0.07807749
0003d0 a6 1a 42 be 16 99 7c 3d 86 32 d3 bd 6a 16 a5 3d
       -0.18955478 0.06166943 -0.10312371 0.08060916
0003e0 69 e0 99 3d 29 6e a7 be 24 c1 c3 3d d1 25 cf bd
       0.07513506 -0.32701233 0.09558323 -0.10114635
0003f0 00 84 a3 bd 19 03 a6 3d 8f dc 0d 3e 6b 3f 14 be
       -0.079841614 0.081060596 0.13853668 -0.14477317

fc3.bias f4 [10]
000000 62 8b 70 3e 25 ca c0 3c 48 cc ed 3d f1 c6 49 bc
       0.2349067 0.02353389 0.11611229 -0.012315498
000010 e7 9c 9d bd 79 ff 8c bc 59 10 14 be 67 99 94 3d
       -0.07695942 -0.017211663 -0.14459361 0.07255822
000020 ce 87 8e 3e 29 6f d3 3d
       0.27837986 0.103239365
