hw5/checkpoints/best_model.pth (torch, 250530 bytes, 10 tensors)

conv1.weight f4 [6, 1, 5, 5]
00000000: 4c9d 38be bd06 aabe 82a4 f9bd 4516 3fbe
00000010: df4d 2cbc 42ae 9d3c f147 fb3c f0d3 5e3e
00000020: 61be 133c 053b 093e c351 493e e9d0 6cbd
00000030: 71e8 3b3e 661c 8e3d 68c0 843c c1a0 4d3e
00000040: c041 f13d 29fe 20be 2fd2 933d f317 cfbd
00000050: c926 f23b 520c d8bc 3a32 66bd 9269 463d
00000060: 799b e13c 7d8a 413e f2e5 a23d 428e 453d
00000070: 4f2b 793d c60a 983e bc3d 90bc beb1 323e
00000080: 6d93 68bc 91c8 9d3e e91d 8b3d 5dcd a4be
00000090: 2bdd 05bd ee3b b43d e33d 573e b635 323e
000000a0: 6bf6 94be 135f 49be 9e87 343c ccee c83d
000000b0: 0f21 373d 6c92 2a3c b6fc 4cbe 82a6 363e
000000c0: 442c 923d aba1 3d3d c095 83bd 93ce 54be
000000d0: 82e6 8c3d f521 283d 75fb b73d 9f75 48bc
000000e0: 5446 a23e bf82 d23e 1dee 6e3e c6f0 dc3d
000000f0: 2ec3 b33e f15f a23e 67ca 243c 082e 9c3e
00000100: eee8 803e 84ee 35be 4ffe a0be 0d67 84be
00000110: a90c adbe 0513 20be b41d 0dbe 4d54 41be
00000120: 019a bcbe 74ed 84be 09a6 75bd 96c7 c83e
00000130: f5da 903d 4038 30be dc82 86be 3173 0dbe
00000140: ba53 df3b 7483 b3be 6533 67be d5c6 c2be
00000150: 338d ac3d f073 5abe 7e6f d7be a0d2 b0be
00000160: bccb b43d c01b 1a3e 121c b5be b866 bdbd
00000170: adcd bb3c 179b 533e 2c76 273e 0822 afbe
00000180: 6e6b cfbd b079 963d 414a 4bbd 8fc8 a93e
00000190: c7ae 443d 2e1b 15be bb94 50be acd2 6b3d
000001a0: c15e 2c3d 6f5a 5bbe a310 efbd 7eab 6abe
000001b0: 6854 47be 7137 f63d bd7e 55be 99dd 8abe
000001c0: cc26 63be 6767 023e aef9 993e dc23 b8be
000001d0: c727 5abe c250 ce3d 3ccc 753e c0db a03e
000001e0: cf36 f3bd 348f dc3d 701a 6b3e 110c 123e
000001f0: 322c 063d c2c4 2f3d a9f0 28be b1c7 90be
00000200: 9d76 b5be f737 41be fb48 4e3e 618e d1bd
00000210: 7cb5 35be 8388 e7bd 6e86 8cbe c64d 8f3e
00000220: b8b3 b73e 6ebb 78be 3c87 b8be e342 f93d
00000230: d108 f1bd 84be d63e 070c 3a3c 46b8 f7bc
00000240: 8e23 503e cd3a 3abd cb13 a23e c87f a23e
00000250: e837 7d3e cc88 a13e
-0.18028754 -0.33208266 -0.121895805 -0.18660839 -0.010516613 0.019248132 0.030673953 0.21760535
0.009017558 0.1340142 0.19660096 -0.05781642 0.18350388 0.0693901 0.016205028 0.20080854
0.11780119 -0.15721954 0.07217824 -0.1011199 0.0073898775 -0.026373062 -0.056200244 0.048440523
0.027539955 0.18900485 0.07954015 0.04823137 0.060832318 0.2969572 -0.017607562 0.17450616
-0.014195305 0.30817083 0.06792814 -0.3218793 -0.032681625 0.08800493 0.21019702 0.17403302
-0.29094252 -0.19665174 0.011018662 0.09811172 0.04470926 0.010410886 -0.20018277 0.17836955
0.07137349 0.046296757 -0.06425047 -0.20781927 0.068799034 0.04104801 0.089835085 -0.012235074
0.3169428 0.41115376 0.2333302 0.107881114 0.35109848 0.31713822 0.010058022 0.3050387
0.2517771 -0.17766768 -0.31444022 -0.25859872 -0.3379872 -0.15632255 -0.13780862 -0.18879814
-0.36836246 -0.25962412 -0.059972797 0.39214772 0.07073013 -0.17208958 -0.26271713 -0.13813473
0.006815401 -0.35061228 -0.22578199 -0.38042322 0.08425369 -0.21333289 -0.4207725 -0.34535694
0.08827922 0.15049648 -0.35372978 -0.09248108 0.022925222 0.20664631 0.16353673 -0.3420565
-0.101279125 0.07347429 -0.04963136 0.33160827 0.048018243 -0.1456115 -0.20369236 0.05757396
0.042082552 -0.21421216 -0.11673095 -0.22916982 -0.19465792 0.12022293 -0.20849128 -0.2712219
-0.22182769 0.12734757 0.30073303 -0.3596486 -0.21304236 0.10073997 0.2400369 0.31417656
-0.11875688 0.10769501 0.22959304 0.14262415 0.03275699 0.042912252 -0.16498055 -0.28277352
-0.35442057 -0.18869005 0.20145027 -0.10232235 -0.17745012 -0.113053344 -0.27446312 0.27989024
0.35879302 -0.24290249 -0.36040676 0.12170961 -0.1176926 0.41942227 0.011355407 -0.030239236
0.20326063 -0.045466233 0.31655726 0.31738114 0.24728358 0.3154968

conv1.bias f4 [6]
00000000: 6e2c bb3d b7bf 17bc a4f7 1b3e f577 9abe
00000010: cde2 56be 3dbe 47bb
0.09139334 -0.009262017 0.15231186 -0.30169645 -0.20984955 -0.003047838

conv2.weight f4 [16, 6, 5, 5]
00000000: 00b9 c0bb 9173 5e3d c036 f4bc 7698 b3bd
00000010: b1e9 e6bd cf2e d93d 51f9 653d 760c b7bd
00000020: 6e41 2bbd c1fe 913d 63ae 70be e46d 30be
00000030: f0a2 913d b149 9e3d 3479 233d 6963 a3bd
00000040: faef 373e 56ea f23d cc63 0fbc 2f0f 7cbd
00000050: 10ca 97bc 5e35 703c 86ac c0bd 76b9 393d
00000060: 15f2 d6bb 2986 813c 354d 39be 00cd e3bc
00000070: 675b 12bd f96d 0fbd 85fe d9bb 1b3b bdbc
00000080: 448f cabb d0cb 30be a35a 29be cfce 48be
00000090: 0a88 bb3d fbf7 1abd 0e49 18be 5d9e 1bbe
000000a0: d216 fe3b f7f3 d23d 85e2 49bd 637d 9c3c
000000b0: 7644 91bd 9e00 cc3c 2746 e83d eb6e 9a3d
000000c0: f39c 94bd 95e9 9dba 42a5 dfbc 7e62 f93d
000000d0: f361 95bc 25b4 8d3d c5e2 333e d42c 4e3e
000000e0: 9ac2 1f3e 99b2 f4bd 9634 18be 0f39 83bd
000000f0: 0db7 0dbe fda4 49be 2a90 b9bc e074 283e
00000100: ddd3 3f3e 51d8 903d 14a2 423d c5d4 ee3d
00000110: b215 c6bd 3e9a f63c 2bce 753d 684c 053b
00000120: a230 8dbd 0675 213c 3d06 003d b9cc 323e
00000130: f6c4 f13d 652c cb3d ffa6 afbd 6914 b8bd
00000140: 0cba e93d 91b2 2f3d ca85 0abd 0075 d83d
00000150: 347d d8bc 29ff c2be fa50 8ebe 4ecb 013d
00000160: f14a 4a3d 6600 3a3d c38b dcbe fd36 d8be
00000170: 40bd 9d3d 8243 513e 0e7e 973d 64c6 23be
00000180: 8671 bfbc 966f b73d 2690 c3bd 2fa4 3ebe
00000190: 14e3 713e adc5 c53d 6a66 62bd af66 aabd
000001a0: cc3e 14be 6e88 843d 904f 79be 3493 c23d
000001b0: f6a5 3c3d a7f6 1a3e e607 d6be cc00 b1bc
000001c0: f2a9 983d 4975 1c3e 061d 323e 0171 3fbe
000001d0: a500 af3b 7c76 ea3c 22c3 b63d bc70 13be
000001e0: 1c5d ae3c 20af 30bd 683d 33bd 9797 51be
000001f0: 4e82 8dbd ae7d 84bc 4524 ccbd 47f1 d8ba
00000200: be50 943d 7292 27bd 702b eebd 3669 d8bb
00000210: ecfe 49bd dc27 783d f337 a33d 11c8 ee3d
00000220: 2f36 9d3d da7f ebba ee90 a3bd d844 3cbe
00000230: 92f7 e23d 89e3 02bd accb adbd 1f5a 19bd
00000240: 1479 3d3b c164 20be 03f2 f7bd e33a 5cbc
00000250: 9544 193d 888a cc3d 35ca c2bc 3b46 1a3b
00000260: f77e ab3d 832a 2a3e 0933 ce3d 349d 55be
00000270: 90d1 43be e4f5 3b3d 3511 47bc 65b5 8ebd
00000280: c2ee 31be a582 0cbe 2d9f a33c ce1e a8bc
00000290: f8c7 cd3c 7aa9 b63d ecd7 063e d2e6 0a3e
000002a0: d0ff ff3d 2711 893b fd26 bb3c 6f7c 9c3d
000002b0: 17fa 873d d301 da3a a054 f4bc ecde 5fbd
000002c0: a5a6 c13d cf7a b5bc 2a6b 16bd 7196 6d3d
000002d0: 9ccf f0bd 1112 493a 04db 05bc e841 fc3c
000002e0: 11f6 313d 25d4 65be 2645 81bd 6fe2 c6bb
000002f0: 39e7 3f3d 9057 ad3d 95ef a0bd 0a79 4ebd
00000300: 5a9f 7ebd 61dd 953d 1f92 55bc 0c84 fa3c
00000310: f4dd dc3d aa29 b53d 2282 8abb 9115 4dbd
00000320: 03d2 723d e082 413c de1d 623d 17b8 013e
00000330: 231a 233e 2d9e ab3d 4eb2 3c3d 2b36 e03d
00000340: e6ba 00bc 1aec 4dbd 126d 7abe 598e 18be
00000350: a037 25be 3ac0 30bd f112 e5bc 002f 98bd
00000360: 59b9 71bd 3140 9a3d ac37 2b3e c096 d33d
00000370: 3e6a 9c3d a6f6 d53d 31a2 133e fbb2 b13b
00000380: cee8 81bd 158f 02be 31c1 bb3d d0b9 20bd
00000390: f5fd 04be bc67 32bd a7bd dbbd ef71 29be
000003a0: d4e1 09be 80a8 853d 8d2a 1e3d 8dde c13d
000003b0: 43f4 b6bc 14ec a03d beb1 ad3d 1edd f83d
000003c0: 8249 c13d b1d7 11bd 0bea 1cbd 566a e5bd
000003d0: a260 ccbc aeb6 bfbd 3575 1cbe 9eaf 73be
000003e0: 0748 f8bd 0a63 50bd 2311 12be c3de 95bc
000003f0: 8747 b0bd 7997 7dbd 4050 59be c34d 91be
-0.0058814287 0.05430943 -0.029811263 -0.08769314 -0.11275042 0.10604631 0.05614597 -0.089379236
-0.041810445 0.071286686 -0.23504023 -0.1722942 0.07111156 0.07728899 0.03991051 -0.07977945
0.17962638 0.11861102 -0.008751821 -0.061537918 -0.018528968 0.014661161 -0.09407906 0.045342885
-0.00655962 0.015811043 -0.18095858 -0.027807713 -0.0357317 -0.035016987 -0.0066526555 -0.023099473
-0.0061816294 -0.17265248 -0.16538481 -0.19610141 0.09156807 -0.03783415 -0.14871618 -0.1519713
0.0077541852 0.10300439 -0.04928829 0.019102758 -0.07093136 0.024902638 0.113415055 0.07540687
-0.07256498 -0.0012047762 -0.02730048 0.12176989 -0.018235182 0.069191255 0.17566974 0.20134288
0.15601578 -0.11948127 -0.1486381 -0.064073674 -0.1383936 -0.19691844 -0.02265175 0.16450834
0.18733163 0.07072509 0.04751785 0.11661676 -0.09672107 0.030102845 0.06001107 0.002033973
-0.068940416 0.009854561 0.03125595 0.17460908 0.118051454 0.09920577 -0.08576774 -0.08988268
0.11412439 0.042894904 -0.033818997 0.10569191 -0.026426889 -0.38085297 -0.27796155 0.031688027
0.049387876 0.045410536 -0.4307538 -0.42229453 0.07702112 0.20435908 0.0739709 -0.15993649
-0.023369562 0.0895683 -0.095489785 -0.18617319 0.2362178 0.09656844 -0.05527345 -0.083203666
-0.1447708 0.064713344 -0.24346757 0.09500733 0.04605671 0.15133153 -0.418029 -0.021606825
0.074542895 0.15279116 0.17393884 -0.18695451 0.005340653 0.02862095 0.089239374 -0.14398474
0.021284632 -0.043135762 -0.043759733 -0.20467983 -0.06909619 -0.01617321 -0.09967855 -0.0016551398
0.07241963 -0.040911146 -0.11629379 -0.006604339 -0.049315378 0.060584888 0.07969656 0.116592534
0.0767635 -0.001796718 -0.079866275 -0.18385637 0.110823765 -0.031955276 -0.08486113 -0.03743946
0.002891128 -0.15663435 -0.12106707 -0.013441774 0.03741892 0.0998736 -0.02377806 0.0023540396
0.08373826 0.1661778 0.10068328 -0.2086075 -0.1912291 0.045888796 -0.012150099 -0.06968192
-0.17376235 -0.13721712 0.019973362 -0.020522501 0.025119767 0.08919044 0.13168305 0.13564613
0.12499964 0.004182953 0.02284574 0.07640921 0.06639498 0.0016632624 -0.029825509 -0.054655954
0.09455613 -0.022153286 -0.036723293 0.0580048 -0.11758348 0.00076702336 -0.008169893 0.030793145
0.043447558 -0.22444208 -0.06312017 -0.0060694735 0.04685137 0.08463967 -0.07858197 -0.0504084
-0.06216369 0.07317615 -0.013035326 0.030580543 0.10784522 0.088458374 -0.004226939 -0.050069395
0.059282314 0.011810988 0.055204265 0.12667881 0.15927939 0.08379779 0.046068482 0.10947832
-0.00785706 -0.050273992 -0.2445567 -0.14898051 -0.161345 -0.04315207 -0.027963134 -0.074308395
-0.059014652 0.07531775 0.16720456 0.10331488 0.076374516 0.10447435 0.1441734 0.0054229475
-0.06343232 -0.12749894 0.09167708 -0.039239705 -0.12987502 -0.04355596 -0.10729533 -0.16547368
-0.13465053 0.065262794 0.0386148 0.09466276 -0.02233327 0.07857528 0.08481167 0.1215155
0.09437849 -0.03560609 -0.03830914 -0.112019226 -0.024948422 -0.09361015 -0.15279086 -0.23797461
-0.12123113 -0.0508757 -0.1426435 -0.018294698 -0.08607393 -0.061912034 -0.21222019 -0.2837964

conv2.bias f4 [16]
00000000: 380f d9bc dd60 ff3c e352 13be 0ccb 273d
00000010: 669d d73c 99f9 f43b 8600 d7bd b340 05ba
00000020: 0e3b cdbc 148a 833d ec7c 1cbc 4ed4 a1bd
00000030: 2334 e0bd d300 94bd 549d 3f3d 68e0 11bd
-0.026496515 0.031174118 -0.14387088 0.040965125 0.02632017 0.0074760434 -0.10498147 -0.00050831883
-0.025052574 0.06422821 -0.009551268 -0.07901822 -0.10947444 -0.0722672 0.0467809 -0.0356144

fc1.weight f4 [120, 400]
00000000: e735 d1bd 9912 1f3d fe8e 273b b9cb 243d
00000010: 8931 663d 8998 933c 5aea dc3c 6217 4dbd
00000020: 0674 25bd 9fdc bebc 78ea a2bd 5afb a53c
00000030: 8389 4bbc 955e 003d e98c d1be 86c0 f1bd
00000040: 9257 9b3d 7c59 19bb 6734 57bd b773 7abe
00000050: 02c5 ebbc edcd 9abc 7828 c7bc 42e9 2abe
00000060: a8ae e8bd 5562 8abd 00af d8bc 2ef7 903d
00000070: c7fa ab3c 17c4 f7bb f6bf d6bd 540f d2bd
00000080: 4971 0ebb 4e22 c3bd 7229 b8bd 46bb c2be
00000090: 280e c3bd fedb 5f3d 4340 6d3d 7e94 8e3d
000000a0: 2e75 a3be bb3e b63d b975 353d b00b 25bd
000000b0: fda1 8abd 1d2a 85bd fd71 603d 1e61 cfbd
000000c0: 4497 6ebd eeed debd 9d86 1dbe fd24 a9bc
000000d0: 07e1 32be e084 d63b 6204 983d e6c3 223d
000000e0: 4dcf c5bc 4d34 90bd e2fe a63d 12a1 053e
000000f0: 50da a13d 3875 efba 7085 89bd a7eb 343d
00000100: 4db1 07be 43be 00bd 29cc 82bd d77e c23c
00000110: 1ac5 933d b97b ffbd 63ba 923d e7b9 263d
00000120: 0b98 fb3d fedf 733d 1cdf a8bd e5df 2ebe
00000130: 3444 35be 0256 e83d 84fd a1bd d55e 81bd
00000140: 79e8 13be c7c7 a0bc a3f1 813c df9d 863d
00000150: c4a4 943d 49b0 c03d 328b 6e3c 9403 933d
00000160: c643 ccba d952 c63d e173 be3d c633 0dbc
00000170: 30c9 1f3d 45e9 41be 761b 21be e484 7a3d
00000180: cf94 b83d c724 783c 3207 a4bd bed6 19bd
00000190: 6b64 8bbb 982b cd3b 0a3c a2bb 6896 393c
000001a0: 9d93 9cba 47cd 213d 3848 b13d e53b 9fbd
000001b0: d0e1 22be 208e 48be 3444 bc3c 3ddd 4dbd
000001c0: 41f3 57bd 0fe9 1bbd 77f0 6abe 3005 a8bc
000001d0: 11e3 0abd 3880 073d 0a25 c03d 8f86 1abe
000001e0: af9a 8fbd ea0a c73a 46e8 113d fad9 34bd
000001f0: b868 5c3c cf99 31bc 1de1 43bc f398 783d
00000200: c6d6 06be 9b99 6dbd 3e34 c1bd 926a c23c
00000210: db66 f2bc afb7 b1bd b954 5cbd f912 2fbe
00000220: 2322 f63d 1677 783d f7f3 ecbd ecc5 ad3c
00000230: 8558 bdbc b9f7 393e 83a8 0e3d 2792 8fbd
00000240: be36 acbd 27f5 14bc dc53 50bd b858 413c
00000250: ed59 25bc fd14 94bd a696 b3bc fab7 643d
00000260: e072 993c 1766 86bd b03d 18be 0bac 003c
00000270: e7ff 8e3d ff99 85bd 8118 8ebe bba6 3dbe
00000280: fb44 ac3c 8865 9fbc 21b1 6f3d 0910 393d
00000290: c5eb c4bc d968 123d dcf6 febb 0d41 a23c
000002a0: af9d 5c3e 4dc6 373c af01 babc c33c 4e3d
000002b0: 8657 8abd 1554 523e 580b 84bb c626 32be
000002c0: 9ddc dcbd d6bb 27bd 4f57 4b3d 69b2 1c3d
000002d0: 4d32 debc b976 bdbd 6236 82ba 5f3c 8c3d
000002e0: 2bf1 fe3d b3e9 db3d ffbd 713d cbfe 173d
000002f0: b7cd 153d dacc 363e 6254 c93d 260d 313d
00000300: a99e 27be 1ee6 d5bc b200 483c 429f 9dbd
00000310: efba 8b3d 962e ebbd 082f 993d 764e 803d
00000320: ef0d 91bc 94af 263d 5543 ae3d be44 99bb
00000330: 7d10 41bd d0e7 a63c f3d0 a03c e7d2 f63c
00000340: bd3c 8dbc 1367 5ebc aec9 20be e74a 0ebe
00000350: bf27 3fbd 2a7f bdbd d890 d03c a91c 5ebd
00000360: 2c4f de3a 0696 01bd c80a eebd f07f 11bd
00000370: bc9c 2f3d a41a b6bb 78bc e4bd 793a a8bd
00000380: b4ab c23d a67a 693b ae1a b5bc 8840 f23c
00000390: f212 923d cce5 29bc f23f 58be b127 e8bc
000003a0: ed8f 083d 4d7e 50bd ecbe a73c 698d 5ebb
000003b0: 8676 f33d a3b6 7ebd bbd9 11be aa3b 18be
000003c0: e6ae f5bc 595b 513d c090 1cbd 8807 55bd
000003d0: 546c 55bd 23d2 d5bc 8363 8fbd 108d 96bd
000003e0: 3ab1 9cbc 5038 d6bd 6150 b53d 79c2 88bd
000003f0: 51a3 b0bd 50c0 1c3d 5af1 4dbd a285 0f3d
-0.10215359 0.038836095 0.0025567408 0.040233348 0.056199584 0.01801707 0.026967216 -0.050071128
-0.04039385 -0.02329856 -0.079548776 0.020261455 -0.012422922 0.0313402 -0.40927818 -0.11804299
0.07585062 -0.0023399284 -0.05254021 -0.24458204 -0.028780464 -0.018897021 -0.02431129 -0.16690543
-0.11361438 -0.067570366 -0.026450634 0.07078396 0.020993603 -0.0075612175 -0.104858324 -0.1025683
-0.0021735004 -0.095280275 -0.0899228 -0.38033503 -0.095241845 0.05465316 0.057922613 0.069619164
-0.31925339 0.08898684 0.044301722 -0.04029435 -0.06769178 -0.06502173 0.054796208 -0.101259455
-0.058249727 -0.10885225 -0.15383382 -0.02064752 -0.17468654 0.0065466017 0.07422711 0.039737605
-0.0241467 -0.070412256 0.08154084 0.13049725 0.07902968 -0.0018269187 -0.06714904 0.044170048
-0.13251229 -0.031431448 -0.06386597 0.023742123 0.072153285 -0.1247477 0.07164457 0.040704634
0.12284859 0.059539787 -0.0824568 -0.17077596 -0.17701799 0.1134453 -0.079096824 -0.06316916
-0.1444415 -0.019626511 0.015862292 0.0657308 0.07257989 0.09408624 0.014559554 0.07178417
-0.0015584163 0.09683771 0.09299446 -0.008618301 0.039010227 -0.18936642 -0.15733132 0.06116189
0.09012758 0.015145487 -0.08009185 -0.03755831 -0.004253914 0.0062613003 -0.004951005 0.011327364
-0.0011945848 0.03950241 0.08656353 -0.07775096 -0.15906453 -0.19585466 0.02298174 -0.050259817
-0.05272222 -0.03806406 -0.22943293 -0.020510286 -0.033907954 0.033081263 0.09382065 -0.15090393
-0.070119254 0.0015185748 0.035621904 -0.04415319 0.013452701 -0.0108398935 -0.011955527 0.06069274
-0.13167867 -0.058007818 -0.094337925 0.023732457 -0.029590061 -0.08677613 -0.053791735 -0.17097081
0.1201823 0.060660444 -0.1156997 0.02121254 -0.023113498 0.18160905 0.034828674 -0.07010298
-0.08408879 -0.009091652 -0.050861225 0.011800937 -0.010092241 -0.07230566 -0.02192242 0.055839516
0.018731534 -0.06562441 -0.14867282 0.007853518 0.06982403 -0.06523513 -0.2775307 -0.18520634
0.021028986 -0.019457594 0.058518533 0.045181308 -0.024038205 0.03574452 -0.007780893 0.01980641
0.21544527 0.011216712 -0.02270588 0.050350916 -0.06754975 0.20539887 -0.0040296726 -0.17397603
-0.10784266 -0.04095062 0.04964381 0.038256083 -0.027123595 -0.0925116 -0.000993442 0.06847452
0.12448343 0.10737934 0.059019085 0.037108224 0.036573138 0.17851582 0.09830548 0.04322543
-0.16369118 -0.026110705 0.012207197 -0.07696392 0.06822764 -0.11483495 0.074796736 0.06264965
-0.01770684 0.040694788 0.08508936 -0.004677384 -0.047134865 0.020374209 0.019630885 0.030129863
-0.017240876 -0.0135743795 -0.15701935 -0.1389576 -0.046668764 -0.0925277 0.025459692 -0.05422655
0.0016960851 -0.031637214 -0.1162315 -0.0355224 0.042874083 -0.005557375 -0.1116876 -0.08214278
0.09505406 0.0035626083 -0.022107448 0.029571787 0.0713252 -0.010369729 -0.21118143 -0.028339239
0.033340383 -0.0509017 0.02047678 -0.0033958799 0.11887841 -0.062185895 -0.14243214 -0.1486651
-0.029990625 0.051112507 -0.03822398 -0.052009135 -0.052105263 -0.026101178 -0.07001402 -0.07351124
-0.019127477 -0.104599595 0.08853222 -0.06677718 -0.086249 0.03826934 -0.050279 0.03503955

fc1.bias f4 [120]
00000000: 7f78 533d e2b1 b8bc 6dd7 c0bc 8737 6f3d
00000010: a63b 4bbd 0049 02bd 5853 78bd d5f5 1abd
00000020: ed40 623b 25d1 64ba 5267 c8bc 4b6d 5d3c
00000030: c31c a3bc f925 62bd 5ea4 52bb bf7e 91bc
00000040: 1b24 bd3c a3b5 71bd 7c8d d93b bb1f 753c
00000050: 3f68 64bd c56c a5bd 9430 4bbc 0e6d 7c3d
00000060: 62c4 71bc 694b a93b d0ad 8ebd a7ff 13bd
00000070: 65ef 6bbd 4b3c 5abd 8b6c 02bd d95f 88bb
00000080: 562f e53a f853 623b ed5e cebd c039 afbd
00000090: dd49 20bd fb00 88bd 28d8 ef3c a995 1039
000000a0: 501f 133d 71a9 5cbd 7d2d 013b 3907 483d
000000b0: 51e0 353c eda1 cd3c 6cfa 72bd e6b1 bf3c
000000c0: 89f6 10bd 9128 2c3c 9e2a 8c3c d0b0 893c
000000d0: ca76 ecbc 37b4 f43b ba80 383b 6a23 293c
000000e0: 51ad 52bd 06e6 a0bc 246d 18bc 9538 3c3d
000000f0: 3ca9 403c 6efc b23c 91f3 37b8 16df ecbc
00000100: 3647 563c 412d 3dbc 7bb3 9a3c 8421 ccbc
00000110: 353f 20bc afa5 bcbd 8137 84bd 200f 083c
00000120: 6828 35bc df96 e13c 56c1 2fbd ddf1 43bd
00000130: bfcd f9bc 34e7 453c fe81 62bd 5c96 62bd
00000140: 876f ac3c f190 29bd cd70 46bc 7d26 e13c
00000150: 188b 193d ad83 27bd 458d f93b 622a 89bc
00000160: 2b09 493c f079 cfbc 78cb 87bd 3a29 d0bc
00000170: 6f83 03be a459 85b9 cbea 09bd 2483 41bd
00000180: 3468 063c 812e 8f3d ce7d 233d b1a7 a63c
00000190: 0266 8fbc 5628 173c 30ab 1ebd 8050 913d
000001a0: 343e 303c ae04 8ebd a722 0f3d 1ba8 a93c
000001b0: 981e 543d cd41 2ebb b8e8 123c 6a31 7ebc
000001c0: 950b 123c 992e 503c 7e9f 22bc 7b6b d2b8
000001d0: 147e f4bc 60de c8bc 0867 c0bb 6490 af3c
0.051628586 -0.022545759 -0.023540223 0.058402564 -0.049617432 -0.0318079 -0.060626358 -0.0378321
0.0034523562 -0.0008728675 -0.02446333 0.013514827 -0.019911176 -0.055211995 -0.0032141428 -0.017760633
0.023088505 -0.059011113 0.0066391807 0.014961178 -0.05576348 -0.08077387 -0.012401719 0.06162744
-0.014756294 0.0051664603 -0.06966746 -0.03613248 -0.05760135 -0.053280156 -0.031841796 -0.0041618166
0.0017485421 0.0034534913 -0.100766994 -0.08555937 -0.03913294 -0.06640812 0.029277876 0.00013788663
0.035918534 -0.05387253 0.001971095 0.048835013 0.0111008445 0.025101626 -0.059320852 0.023400258
-0.035391364 0.010507719 0.017110165 0.016807944 -0.028865237 0.0074677723 0.00281529 0.010323385
-0.05143482 -0.019640934 -0.009303365 0.0459524 0.011759099 0.021848883 -4.385744e-05 -0.02891497
0.013078501 -0.011546434 0.018884411 -0.024918325 -0.009780695 -0.09211289 -0.06455899 0.008304387
-0.011056997 0.027537761 -0.04290899 -0.04783808 -0.030493615 0.012079049 -0.05529975 -0.055319175
0.021049274 -0.041397993 -0.012111855 0.027484173 0.037486166 -0.04089706 0.0076157176 -0.016743843
0.012270252 -0.025326699 -0.066306055 -0.025410283 -0.12843107 -0.00025434524 -0.03367118 -0.047244206
0.008203555 0.06991292 0.0399149 0.020343633 -0.017504696 0.009225925 -0.038737476 0.07095432
0.010757018 -0.06934486 0.034945156 0.020710042 0.05178699 -0.0026589513 0.008966617 -0.015514711
0.008913894 0.012706422 -0.009925721 -0.000100336 -0.029845275 -0.0245201 -0.0058716573 0.021431156

fc2.weight f4 [84, 120]
00000000: 4fe4 7d3d f951 833d 7541 83bc 40b8 b23d
00000010: fe96 243e 17c5 873c 9685 54bc 393b 00bd
00000020: 873f 343e 5075 313d dbe5 383c 4856 ce3d
00000030: aeb0 b4bd 6fca a73d eb50 babc 8cfd 29bc
00000040: 0281 03be 85fc 403d 9aa2 b7bd 524d 983c
00000050: 1a89 a93d af27 103e 060c b53c 6438 413d
00000060: b132 f9bd 2471 df3d 8091 8f3d 6450 133d
00000070: ab90 8d3c 2d1a 7abd 43be 8dbc d173 0e3d
00000080: cca6 4e3d 2563 9ebd a525 fcbd dc16 7e3d
00000090: b3dd e7bd 731d 3fbd 560e 2f3d b5f6 70bd
000000a0: 44cd 06ba eada 683d 952e 983d e14a 493e
000000b0: f3d5 86bd 83be 11be 007a 5cbd ce1d bd3c
000000c0: 6cce 723d 7f95 debd 9029 f53d 4621 723c
000000d0: cac7 4dbc 8b33 95bd 268f 18be c9eb 843d
000000e0: 1800 863d fd31 a7bd 7e8b 813e 018b 33bd
000000f0: 9caf acbd 5582 f2ba ebdd b43d b685 6b3d
00000100: 4faf 6a3d aa4e c2bd bb0d ccbc a0ce 1cbe
00000110: 52ef 2a3c 7f8b 9438 a70a 31bd dc2e 1fbd
00000120: b8ce 9dbd b769 96bd 0b0c 3c3e df5c f8bc
00000130: 6b02 52be 226b 833c 75de 54bd b356 bebd
00000140: 1b5a 33bc 6138 c43c a27d da3b 9068 60be
00000150: 1dcb ecbd 53ce 3abd 780d 513d bf6f 74bd
00000160: 028c b7bd 69c6 79bd 2609 f93d 0adb cd3b
00000170: 5035 c23c 018c 34bd 1215 45bd fa2b 8e3c
00000180: 6888 993d d654 213d bafe f9bc df82 c5bd
00000190: 4a97 6e3d 5ad8 8fbd ef82 37be 5117 babc
000001a0: 712b 073e 12cb 26bd 2e72 78bd d1d2 553d
000001b0: 15ab 21be 8f79 c43d 6a42 2abd da5c 89bd
000001c0: 17dd ffbc 76b1 83be 305e 2bbd 3187 8c3d
000001d0: f1c4 903b 8d11 323d 69e4 dfbd 85f7 553c
000001e0: 88f5 83be e48a 473c 1d40 0f3b 1a02 71be
000001f0: 6c4f 7f3d 3a4d 113b 557b 9e3d 5f65 be3d
00000200: 9419 6abe 0ff9 d3bd dbae f3bc 302b c9bc
00000210: e6ec 1dbd 9b6f 3fbe 12b1 dbbd 998e 313d
00000220: 920e b63d 4d36 8d3c b84b eb3d 9587 87bd
00000230: 9324 70bd b510 0bbd ff48 19be 7cb9 95bd
00000240: 94dc 403e 3875 b2bd a01a b2bd 3a63 113d
00000250: 853f 803c c610 cdbd 534a 05be f8f2 0ebb
00000260: dbb9 003d e5c6 8d3d 797d 803d 3cb0 623d
00000270: ec7b a0bd 89a3 a5bd 0c07 8cbd c469 8b3d
00000280: 25f0 243d 89fa 96bc 145f 7e3d 39d8 05be
00000290: e6ca a8bd f5c2 813d 7d05 7eba 8256 143d
000002a0: 6c1b 933d c97f 14bd 49a1 993c 8ea7 783b
000002b0: 4409 0ebe 4dac 473c 85dd 0b3e a2d8 243e
000002c0: c0fe c5bd 8765 e6bd 292b 64be 70f1 bcbd
000002d0: 2e14 40bd a3d4 9fbd 7ef3 c23d 7ed0 663d
000002e0: e08e 143d f8ce 863d 4064 64bb dca4 443c
000002f0: 8247 c2bd d76c a53d 02fe 9bbd 2be8 4d3b
00000300: f343 82bc c35f 1b3b 928a d73c f4c9 80bc
00000310: bcff 2c3d be08 b2bd edb0 903d c857 4d3c
00000320: c23f fb3c 8709 923d 72a5 393d 690a 8e3d
00000330: 83c0 f2bc 808c 9abd 4294 64bd e2fa 46bc
00000340: 32f6 373e 4b54 26bc 26d7 853c a9da da3c
00000350: 1b61 b1bd 23b6 613d dd1e e23c 6e14 b53d
00000360: 23f9 ee3d c108 f53c cab7 733e dfb9 503e
00000370: fe7c 473d 42b6 e3bb c8c9 83bd f050 f7bc
00000380: 05a5 34be b8d2 7fbd 376b 0e3d 628b 31bc
00000390: f79e 9fbb ef9a 2bbe 1453 88bc 6cb7 b5bc
000003a0: 8370 bb3d b7fa 373e a2ce 433d dfaa 813d
000003b0: f469 4f3d 41a7 8dbe 9a1e c2bb 79c0 d4bd
000003c0: f61c 39bc 7be0 833d 3be0 c83b ce3c 75bd
000003d0: a3ef ba3d 9ac8 12be 6556 bdbc 9f4f f7bd
000003e0: d44e c23d ba9a 053d 8554 9f3c a942 8ebc
000003f0: a0f2 273b b9df ce3d 5d6a e93c 0aca 963d
0.06198531 0.064121194 -0.016022423 0.08726549 0.16073224 0.016573472 -0.0129713025 -0.03130648
0.17602359 0.04332477 0.011285271 0.100750506 -0.088227615 0.08192908 -0.022743663 -0.010375392
-0.12842181 0.04711582 -0.08966561 0.018591557 0.08278103 0.14077638 0.02210046 0.04717292
-0.12167872 0.10910252 0.07010174 0.03596534 0.017280897 -0.06106012 -0.017302638 0.03477842
0.05045204 -0.07733754 -0.123118676 0.06203352 -0.11321583 -0.046658944 0.04273828 -0.05882903
-0.00051422813 0.056849398 0.0743076 0.1965747 -0.06583776 -0.1423283 -0.053827286 0.023085501
0.05927889 -0.10868358 0.11970818 0.014778441 -0.01255984 -0.07285222 -0.14898357 0.06490285
0.06542987 -0.081638314 0.25301737 -0.043833736 -0.08431932 -0.0018501977 0.0883139 0.057500564
0.057296094 -0.0948766 -0.024908891 -0.15313196 0.010433035 7.083173e-05 -0.04322305 -0.038863048
-0.07705444 -0.07344382 0.18363969 -0.030317722 -0.20508735 0.016042296 -0.051969964 -0.0929388
-0.010946776 0.023952665 0.0066678086 -0.21914887 -0.11562178 -0.045606922 0.051038235 -0.059676882
-0.08962251 -0.060980234 0.12159948 0.006282215 0.023707062 -0.04407883 -0.048115797 0.017354954
0.074967206 0.039387546 -0.03051697 -0.09644102 0.05824975 -0.07023688 -0.17921041 -0.022716196
0.13200165 -0.040721007 -0.060655765 0.052203003 -0.15787919 0.09593498 -0.041567244 -0.06707163
-0.031233354 -0.2572133 -0.04183787 0.06861723 0.0044180085 0.04347377 -0.10932238 0.013059502
-0.25773263 0.01217911 0.0021858283 -0.23535958 0.062331602 0.0022171275 0.077383675 0.09296679
-0.2286132 -0.103502385 -0.029746464 -0.024556726 -0.038556002 -0.18694918 -0.10727133 0.043348882
0.08889498 0.017237807 0.114890516 -0.06617657 -0.05862863 -0.03395148 -0.14969252 -0.07310769
0.18834144 -0.08713764 -0.086964846 0.03549502 0.015655288 -0.10012965 -0.13016634 -0.00218123
0.031427246 0.06922702 0.06273932 0.05534385 -0.07836136 -0.080878325 -0.068372816 0.068072826
0.040268082 -0.018430011 0.062102392 -0.13070764 -0.08241825 0.06336013 -0.0009690149 0.036215313
0.07182965 -0.036254678 0.018753665 0.0037941667 -0.13870722 0.012187076 0.13658722 0.16098264
-0.0966773 -0.112498336 -0.2228209 -0.09225738 -0.046894245 -0.07804229 0.09519099 0.056351177
0.03626907 0.06582445 -0.0034849793 0.012002196 -0.09486295 0.080774 -0.076168075 0.00314189
-0.015901541 0.0023708201 0.026311193 -0.015721299 0.042236075 -0.08693074 0.07064996 0.012533136
0.03067005 0.071307234 0.045323797 0.06935579 -0.029632812 -0.075463295 -0.055805452 -0.012144776
0.1796501 -0.010151933 0.016337942 0.026715593 -0.086610995 0.05510534 0.027602607 0.08841787
0.11668613 0.0299114 0.23800579 0.20383404 0.048703186 -0.006949217 -0.06434971 -0.030189961
-0.17641075 -0.062456816 0.034770217 -0.010836454 -0.004871245 -0.16758321 -0.016641177 -0.022182189
0.09152319 0.17966734 0.047804482 0.06331419 0.050638154 -0.27666667 -0.005924058 -0.10388274
-0.011298409 0.064393006 0.006130246 -0.05987244 0.09127738 -0.14334336 -0.023112485 -0.120757334
0.094876915 0.032618262 0.019449482 -0.01736577 0.0025626794 0.101012655 0.0284931 0.07362755

fc2.bias f4 [84]
00000000: a9be 333e 94b1 493d 6eb3 263e 370c 0c3d
00000010: 2da9 b23c ff95 6f3e 24da cc3d 511f 853e
00000020: 5c92 563e f226 973d 59cf c0bd 87db 113e
00000030: 8131 2b3e bb8d 613c 7d77 8d3e d6c8 3b3e
00000040: 8fd8 d23d acc2 2a3e 764e 0a3e 0608 793d
00000050: ecf1 513e c8c0 063d 3571 373d 9ecf 893d
00000060: 9477 2e3d c740 29bc 6ef8 163e a174 313d
00000070: b3ff 873d 03d6 453d d424 ff3d 5d9e e93d
00000080: e8df 873e 1697 853d b9c8 743e 18b5 163e
00000090: c1e5 ccbb 45cb 143e a67b a73d 7b08 e33d
000000a0: 8b0f 323e a9f3 113e 1fb7 e63d 60c2 143e
000000b0: 86c8 8a3d 8c21 cd3d 2e1b 323d 896c 613e
000000c0: 8150 743d 3bb5 593e c9b0 683e fede 253e
000000d0: 775a 513e b741 033e c5d6 aebb fd4c e83d
000000e0: 0b96 b43d 7e1f f43d 0790 a43e 3d67 363e
000000f0: 9dec 023e a546 343e 36bb 003e 2647 693e
00000100: f92d df3c dbb5 773d c7de f23c d810 f93d
00000110: 7174 1e3e 7092 ef3d c411 8b3e 7c52 663e
00000120: bca5 5f3d c525 a83d 1a17 673d 6c6d cd3d
00000130: cff4 d53d 8a43 f5bb e47b 8b3e b0c2 9a3e
00000140: b968 753e 2f69 453e 7d45 d63d 1b03 a83d
0.175532 0.049241617 0.16279384 0.034191336 0.021809185 0.23397063 0.100025445 0.26000455
0.20954269 0.07380475 -0.094145484 0.142439 0.16718103 0.013766701 0.27630225 0.18338332
0.102952115 0.16675824 0.13506493 0.060798667 0.20502442 0.032898694 0.044785697 0.06729053
0.042594507 -0.0103303855 0.14743206 0.043324117 0.06640568 0.0482998 0.12458196 0.114071585
0.26538014 0.06522958 0.23904695 0.1471752 -0.0062529747 0.14530666 0.08177881 0.11085602
0.17388742 0.14253105 0.11265396 0.14527273 0.06776528 0.10016164 0.04348295 0.22014059
0.059647087 0.2126054 0.22723688 0.16198346 0.20444666 0.12818037 -0.005335661 0.11342809
0.08817681 0.11920069 0.32141134 0.1781282 0.12785573 0.17605074 0.12571415 0.22781047
0.027243601 0.060476165 0.029647244 0.12161416 0.15474106 0.116978526 0.27161992 0.22492403
0.054601416 0.08210329 0.056418516 0.10030636 0.10447084 -0.007484858 0.2724296 0.3022666
0.2396573 0.19278406 0.104624726 0.08203717

fc3.weight f4 [10, 84]
00000000: de9f 2e3d 82cf 66bd 9838 1dbe 9169 40be
00000010: 23c3 73bd e886 013e df27 4dbe 683b 4abd
00000020: 314b 9dbe 0a61 02be 447f 69be 203b 3e3d
00000030: 3b01 813d ad05 c2be 4afe 803d 469c c03d
00000040: 3f77 9e3d 185f 2cbe 8a5f 56be 75a3 fb3c
00000050: 2c27 aabe 9c83 c13d 1cc2 02be 785f 05be
00000060: ac87 fe3d 750e 81be eb9d fe3d 6f45 97be
00000070: 6df5 4abe 71e2 7fbe d98b 923d 876a 3f3c
00000080: a557 45be 4b73 51bb 6186 bc3d 43b6 093e
00000090: b662 fcbd 9859 7ebe 844b 2dbe d619 82be
000000a0: 5096 4abd 7ad5 cdbe 7f59 f93d 2690 023e
000000b0: 21a0 abbe 2f76 b53d 916d f4bc 6c8d f33d
000000c0: 09d8 ab3d cd85 4cbe ce8f 003e 5a94 aabe
000000d0: b6c1 cfbd a63f 3b3e e730 943d 3303 d33d
000000e0: e3fd 99be 56d6 4b3d a53a 85bd 650b 3d3d
000000f0: 317e 10be 304c 443d 471d 73bd 13c3 0ebc
00000100: b6fd 98be 6067 04bd afc5 61be 0ce8 7fbd
00000110: f0ad 8dbe c994 253e 175f 843d 5d6a 96be
00000120: edc3 da3d c6d4 2e3e 66ab 0f3e 19b9 e13d
00000130: 5179 c53d c00d a1bd 537c be3d c73a 1abc
00000140: 8813 b0be 977a 1ebe c90b 06be c88c 213d
00000150: 02ef 2cbe f635 e43d 47d6 2f3e 50c2 7d3d
00000160: 2a66 0dbe 4ecc 3fbe db02 a4be 1424 ae3d
00000170: 3575 21be 6692 8bbe c315 f1bb 6b4f 873d
00000180: d904 6bbe e171 12bc 06fd 65be 4a5c 24be
00000190: 55b7 c13c f3cd 36be 0edd 33be 5d14 b23d
000001a0: b618 383d 31e9 94bd 6e7a ed3c 4665 83be
000001b0: 5f47 1bbe af70 bc3d 2ec6 00be 9778 dc3d
000001c0: 12cd e13d bedf c43d c40e 3dbc 49c9 02be
000001d0: 57d2 f13d 425a 123e c28a 0bbe 6000 c63d
000001e0: 624e a0bd 8568 7f3d bdfc bf3d d222 173e
000001f0: ae23 c53d 7746 b93d f3c1 703b b602 50be
00000200: a983 fe3d deed 55be 45d5 cdbd 7c50 3cbe
00000210: 27bc 2ebe fc4a cabc 8701 a1be 97b7 843d
00000220: 16b6 1d3e 57b5 20be 7125 a43d 67cb 05be
00000230: b9a1 9d3d ad88 42be bcf8 173e fa5f a03d
00000240: c8a0 1a3d 021b 7abe e124 3bbe 47e0 d73d
00000250: 943a a63d c39f 2ebe a3e3 c93d bb63 74bd
00000260: f450 f8bc 712b 0f3e 73ba 8ebe 4ff0 37be
00000270: cfaa 3cbe a9d9 89be 66d7 8dbd 65fa 30be
00000280: 16d4 5abd a017 68be 1172 0fbe a0dc 3abe
00000290: 8349 a2be 0991 09be 0006 ce3d cfbf 0bbe
000002a0: 5a0e dc3d c8b5 ba3d 01ea b3bd b841 04bd
000002b0: ad50 8cbd 30a7 35be d407 7dbe 3c9b 2bbe
000002c0: 7eba 0dbe b2dd 07be b550 803d e7ee 643d
000002d0: 66aa 6a3c 06b2 ae3d 823f 68be e546 58be
000002e0: bc1a b43d 841f d4bd 303f bcbc 1653 8ebe
000002f0: 4595 bc3d aeb6 ba3d ec8a 1dbe 7b8d 323c
00000300: 7653 4abd 6a54 e9bd ca60 143e 2923 c13d
00000310: 5582 ec3d 8dfd ff3d 12ec 863d d64c 33bd
00000320: 9dfe 61be 442a 4d3d 53e7 613d c8ca 853d
00000330: ffb0 9c3c a099 33be b462 a43d fa84 8f3d
00000340: 9557 87be 31d7 3abd 59fd e63d 6d33 6abd
00000350: 3267 f4bd 73a6 4cbe a806 3cbe 2428 ec3d
00000360: 0f43 ea3d b994 07be c4be 26bd 24c1 15be
00000370: 3453 a43d fcb5 40be 63a6 f83c e826 ff3d
00000380: a032 60be 407c c43c e275 58be 54ab 98be
00000390: 3f05 833d 0845 e4bd fd37 4fbe 8a2b c33d
000003a0: 7364 df3d bb37 cdbb 984e 6ebe bded 993c
000003b0: b9aa 3c3e 0ef4 c5bd d2ce 82bc 932e c93d
000003c0: 25df 81bd c274 873d 36f9 37be ef95 1cbe
000003d0: b27e c03d 6ede 66bd b1e8 93bc 7b78 5cbe
000003e0: da86 c9bd 1ec3 f63d 9515 a03d 1513 14be
000003f0: 7fad e23d 118f 6fbd 774e 6fbd b370 aa3d
0.04263293 -0.05635024 -0.1535362 -0.1879027 -0.05951227 0.12649119 -0.20034741 -0.04937306
-0.3072143 -0.1273233 -0.22802454 0.046443105 0.06299063 -0.37894955 0.06298502 0.09404807
0.07737588 -0.1683315 -0.20934883 0.03071759 -0.3323301 0.094489306 -0.1276936 -0.130247
0.12428221 -0.25206342 0.12432464 -0.2954516 -0.19820185 -0.24988724 0.0715558 0.011683113
-0.19271715 -0.003195959 0.09205318 0.13448434 -0.12323515 -0.24838865 -0.16923338 -0.25410336
-0.049459755 -0.40201932 0.12175273 0.12750301 -0.33520606 0.08860432 -0.029837402 0.118922085
0.08390815 -0.19972916 0.12554857 -0.33316308 -0.10144369 0.18285999 0.0723589 0.103033446
-0.30076513 0.049764954 -0.06505326 0.046153445 -0.14110638 0.04792422 -0.059354093 -0.0087135015
-0.29881066 -0.03232515 -0.22048067 -0.062477157 -0.27671766 0.16170038 0.064634494 -0.29378024
0.10681901 0.17073354 0.14030227 0.11021633 0.0964228 -0.07863951 0.09301057 -0.009413428
-0.343899 -0.15476452 -0.13090433 0.0394409 -0.16888049 0.11143105 0.17171584 0.06195289
-0.13808504 -0.1873028 -0.3203343 0.08502975 -0.15767367 -0.2726013 -0.0073573305 0.06606945
-0.22951068 -0.008938284 -0.22459802 -0.1605083 0.02364699 -0.17852001 -0.17564794 0.0869529
0.04494544 -0.0727104 0.028989043 -0.25663203 -0.15163945 0.0920118 -0.125756 0.10765188
0.11025442 0.09612988 -0.011539165 -0.12772097 0.11807697 0.14292243 -0.1362715 0.0966804
-0.0782745 0.062355537 0.09374378 0.14759377 0.09625946 0.09046643 0.0036736696 -0.20313534
0.12427456 -0.2089152 -0.100504436 -0.18390077 -0.17063962 -0.024693958 -0.31446478 0.064803295
0.15401492 -0.15694176 0.08014954 -0.13065873 0.07696862 -0.1899745 0.14840978 0.07830806
0.03775099 -0.24424365 -0.18275787 0.105408244 0.08116642 -0.17053132 0.098578714 -0.059665423
-0.030312039 0.13981415 -0.27876624 -0.17962764 -0.18424533 -0.26923874 -0.069258496 -0.17283018
-0.053424917 -0.22665262 -0.14008357 -0.18248224 -0.3169671 -0.13434233 0.10059738 -0.13647388
0.10744925 0.09116703 -0.08784867 -0.032289237 -0.06851325 -0.17739558 -0.24710017 -0.16758436
-0.13840672 -0.13268164 0.06265394 0.055891898 0.014322853 0.08530049 -0.22680476 -0.21120794
0.08794162 -0.10357574 -0.022979349 -0.27797765 0.092081584 0.09116875 -0.15385026 0.010897989
-0.049396 -0.11393054 0.14490047 0.094305344 0.11548296 0.12499533 0.065879956 -0.04377445
-0.22069784 0.050089136 0.05515225 0.06532818 0.019127367 -0.17539072 0.080266386 0.07007785
-0.26434007 -0.04561538 0.11278791 -0.05717795 -0.119337454 -0.1998537 -0.18361914 0.11531094
0.11438572 -0.13240327 -0.040709272 -0.14624459 0.08023682 -0.18819422 0.030352777 0.12458593
-0.21894312 0.023985028 -0.21138719 -0.29818213 0.06397485 -0.11145979 -0.20236202 0.09529789
0.10907831 -0.006262747 -0.23272169 0.01879012 0.184245 -0.0966569 -0.01596776 0.098233365
-0.063413896 0.06614067 -0.1796616 -0.1529157 0.09399165 -0.05636447 -0.018055292 -0.21530335
-0.09840174 0.120489344 0.078166164 -0.14460404 0.11068248 -0.058486048 -0.05842444 0.08322277

fc3.bias f4 [10]
00000000: d7dd 883e 2a3d 193e 13ee 853d 7247 50be
00000010: 8e35 8ebd 8ce7 b3bd 7ff2 35be 8209 ab3d
00000020: 71f8 823e a952 50bd
0.2673175 0.14964738 0.0653955 -0.20339754 -0.069438085 -0.087843984 -0.17768286 0.08351423
0.2558017 -0.05086008
